…
num_blocks 128
width 64
expected_n_channels 57


Compile model..
Model: "model"
__________________________________________________________________________________________________
Layer (type)                    Output Shape         Param #     Connected to                     
==================================================================================================
input_1 (InputLayer)            [(None, 256, 256, 57 0                                            
__________________________________________________________________________________________________
batch_normalization (BatchNorma (None, 256, 256, 57) 228         input_1[0][0]                    
__________________________________________________________________________________________________
activation (Activation)         (None, 256, 256, 57) 0           batch_normalization[0][0]        
__________________________________________________________________________________________________
conv2d (Conv2D)                 (None, 256, 256, 64) 3712        activation[0][0]                 
__________________________________________________________________________________________________
batch_normalization_1 (BatchNor (None, 256, 256, 64) 256         conv2d[0][0]                     
__________________________________________________________________________________________________
activation_1 (Activation)       (None, 256, 256, 64) 0           batch_normalization_1[0][0]      
__________________________________________________________________________________________________
conv2d_1 (Conv2D)               (None, 256, 256, 64) 36928       activation_1[0][0]               
__________________________________________________________________________________________________
dropout (Dropout)               (None, 256, 256, 64) 0           conv2d_1[0][0]                   
__________________________________________________________________________________________________
activation_2 (Activation)       (None, 256, 256, 64) 0           dropout[0][0]                    
__________________________________________________________________________________________________
conv2d_2 (Conv2D)               (None, 256, 256, 64) 36928       activation_2[0][0]               
__________________________________________________________________________________________________
add (Add)                       (None, 256, 256, 64) 0           conv2d_2[0][0]                   
                                                                 conv2d[0][0]                     
__________________________________________________________________________________________________
batch_normalization_2 (BatchNor (None, 256, 256, 64) 256         add[0][0]                        
__________________________________________________________________________________________________
activation_3 (Activation)       (None, 256, 256, 64) 0           batch_normalization_2[0][0]      
__________________________________________________________________________________________________
conv2d_3 (Conv2D)               (None, 256, 256, 64) 36928       activation_3[0][0]               
__________________________________________________________________________________________________
dropout_1 (Dropout)             (None, 256, 256, 64) 0           conv2d_3[0][0]                   
__________________________________________________________________________________________________
activation_4 (Activation)       (None, 256, 256, 64) 0           dropout_1[0][0]                  
__________________________________________________________________________________________________
conv2d_4 (Conv2D)               (None, 256, 256, 64) 36928       activation_4[0][0]               
__________________________________________________________________________________________________
add_1 (Add)                     (None, 256, 256, 64) 0           conv2d_4[0][0]                   
                                                                 add[0][0]                        
__________________________________________________________________________________________________
batch_normalization_3 (BatchNor (None, 256, 256, 64) 256         add_1[0][0]                      
__________________________________________________________________________________________________
activation_5 (Activation)       (None, 256, 256, 64) 0           batch_normalization_3[0][0]      
__________________________________________________________________________________________________
conv2d_5 (Conv2D)               (None, 256, 256, 64) 36928       activation_5[0][0]               
__________________________________________________________________________________________________
dropout_2 (Dropout)             (None, 256, 256, 64) 0           conv2d_5[0][0]                   
__________________________________________________________________________________________________
activation_6 (Activation)       (None, 256, 256, 64) 0           dropout_2[0][0]                  
__________________________________________________________________________________________________
conv2d_6 (Conv2D)               (None, 256, 256, 64) 36928       activation_6[0][0]               
__________________________________________________________________________________________________
add_2 (Add)                     (None, 256, 256, 64) 0           conv2d_6[0][0]                   
                                                                 add_1[0][0]                      
__________________________________________________________________________________________________
batch_normalization_4 (BatchNor (None, 256, 256, 64) 256         add_2[0][0]                      
__________________________________________________________________________________________________
activation_7 (Activation)       (None, 256, 256, 64) 0           batch_normalization_4[0][0]      
__________________________________________________________________________________________________
conv2d_7 (Conv2D)               (None, 256, 256, 64) 36928       activation_7[0][0]               
__________________________________________________________________________________________________
dropout_3 (Dropout)             (None, 256, 256, 64) 0           conv2d_7[0][0]                   
__________________________________________________________________________________________________
activation_8 (Activation)       (None, 256, 256, 64) 0           dropout_3[0][0]                  
__________________________________________________________________________________________________
conv2d_8 (Conv2D)               (None, 256, 256, 64) 36928       activation_8[0][0]               
__________________________________________________________________________________________________
add_3 (Add)                     (None, 256, 256, 64) 0           conv2d_8[0][0]                   
                                                                 add_2[0][0]                      
__________________________________________________________________________________________________
batch_normalization_5 (BatchNor (None, 256, 256, 64) 256         add_3[0][0]                      
__________________________________________________________________________________________________
activation_9 (Activation)       (None, 256, 256, 64) 0           batch_normalization_5[0][0]      
__________________________________________________________________________________________________
conv2d_9 (Conv2D)               (None, 256, 256, 64) 36928       activation_9[0][0]               
__________________________________________________________________________________________________
dropout_4 (Dropout)             (None, 256, 256, 64) 0           conv2d_9[0][0]                   
__________________________________________________________________________________________________
activation_10 (Activation)      (None, 256, 256, 64) 0           dropout_4[0][0]                  
__________________________________________________________________________________________________
conv2d_10 (Conv2D)              (None, 256, 256, 64) 36928       activation_10[0][0]              
__________________________________________________________________________________________________
add_4 (Add)                     (None, 256, 256, 64) 0           conv2d_10[0][0]                  
                                                                 add_3[0][0]                      
__________________________________________________________________________________________________
batch_normalization_6 (BatchNor (None, 256, 256, 64) 256         add_4[0][0]                      
__________________________________________________________________________________________________
activation_11 (Activation)      (None, 256, 256, 64) 0           batch_normalization_6[0][0]      
__________________________________________________________________________________________________
conv2d_11 (Conv2D)              (None, 256, 256, 64) 36928       activation_11[0][0]              
__________________________________________________________________________________________________
dropout_5 (Dropout)             (None, 256, 256, 64) 0           conv2d_11[0][0]                  
__________________________________________________________________________________________________
activation_12 (Activation)      (None, 256, 256, 64) 0           dropout_5[0][0]                  
__________________________________________________________________________________________________
conv2d_12 (Conv2D)              (None, 256, 256, 64) 36928       activation_12[0][0]              
__________________________________________________________________________________________________
add_5 (Add)                     (None, 256, 256, 64) 0           conv2d_12[0][0]                  
                                                                 add_4[0][0]                      
__________________________________________________________________________________________________
batch_normalization_7 (BatchNor (None, 256, 256, 64) 256         add_5[0][0]                      
__________________________________________________________________________________________________
activation_13 (Activation)      (None, 256, 256, 64) 0           batch_normalization_7[0][0]      
__________________________________________________________________________________________________
conv2d_13 (Conv2D)              (None, 256, 256, 64) 36928       activation_13[0][0]              
__________________________________________________________________________________________________
dropout_6 (Dropout)             (None, 256, 256, 64) 0           conv2d_13[0][0]                  
__________________________________________________________________________________________________
activation_14 (Activation)      (None, 256, 256, 64) 0           dropout_6[0][0]                  
__________________________________________________________________________________________________
conv2d_14 (Conv2D)              (None, 256, 256, 64) 36928       activation_14[0][0]              
__________________________________________________________________________________________________
add_6 (Add)                     (None, 256, 256, 64) 0           conv2d_14[0][0]                  
                                                                 add_5[0][0]                      
__________________________________________________________________________________________________
batch_normalization_8 (BatchNor (None, 256, 256, 64) 256         add_6[0][0]                      
__________________________________________________________________________________________________
activation_15 (Activation)      (None, 256, 256, 64) 0           batch_normalization_8[0][0]      
__________________________________________________________________________________________________
conv2d_15 (Conv2D)              (None, 256, 256, 64) 36928       activation_15[0][0]              
__________________________________________________________________________________________________
dropout_7 (Dropout)             (None, 256, 256, 64) 0           conv2d_15[0][0]                  
__________________________________________________________________________________________________
activation_16 (Activation)      (None, 256, 256, 64) 0           dropout_7[0][0]                  
__________________________________________________________________________________________________
conv2d_16 (Conv2D)              (None, 256, 256, 64) 36928       activation_16[0][0]              
__________________________________________________________________________________________________
add_7 (Add)                     (None, 256, 256, 64) 0           conv2d_16[0][0]                  
                                                                 add_6[0][0]                      
__________________________________________________________________________________________________
batch_normalization_9 (BatchNor (None, 256, 256, 64) 256         add_7[0][0]                      
__________________________________________________________________________________________________
activation_17 (Activation)      (None, 256, 256, 64) 0           batch_normalization_9[0][0]      
__________________________________________________________________________________________________
conv2d_17 (Conv2D)              (None, 256, 256, 64) 36928       activation_17[0][0]              
__________________________________________________________________________________________________
dropout_8 (Dropout)             (None, 256, 256, 64) 0           conv2d_17[0][0]                  
__________________________________________________________________________________________________
activation_18 (Activation)      (None, 256, 256, 64) 0           dropout_8[0][0]                  
__________________________________________________________________________________________________
conv2d_18 (Conv2D)              (None, 256, 256, 64) 36928       activation_18[0][0]              
__________________________________________________________________________________________________
add_8 (Add)                     (None, 256, 256, 64) 0           conv2d_18[0][0]                  
                                                                 add_7[0][0]                      
__________________________________________________________________________________________________
batch_normalization_10 (BatchNo (None, 256, 256, 64) 256         add_8[0][0]                      
__________________________________________________________________________________________________
activation_19 (Activation)      (None, 256, 256, 64) 0           batch_normalization_10[0][0]     
__________________________________________________________________________________________________
conv2d_19 (Conv2D)              (None, 256, 256, 64) 36928       activation_19[0][0]              
__________________________________________________________________________________________________
dropout_9 (Dropout)             (None, 256, 256, 64) 0           conv2d_19[0][0]                  
__________________________________________________________________________________________________
activation_20 (Activation)      (None, 256, 256, 64) 0           dropout_9[0][0]                  
__________________________________________________________________________________________________
conv2d_20 (Conv2D)              (None, 256, 256, 64) 36928       activation_20[0][0]              
__________________________________________________________________________________________________
add_9 (Add)                     (None, 256, 256, 64) 0           conv2d_20[0][0]                  
                                                                 add_8[0][0]                      
__________________________________________________________________________________________________
batch_normalization_11 (BatchNo (None, 256, 256, 64) 256         add_9[0][0]                      
__________________________________________________________________________________________________
activation_21 (Activation)      (None, 256, 256, 64) 0           batch_normalization_11[0][0]     
__________________________________________________________________________________________________
conv2d_21 (Conv2D)              (None, 256, 256, 64) 36928       activation_21[0][0]              
__________________________________________________________________________________________________
dropout_10 (Dropout)            (None, 256, 256, 64) 0           conv2d_21[0][0]                  
__________________________________________________________________________________________________
activation_22 (Activation)      (None, 256, 256, 64) 0           dropout_10[0][0]                 
__________________________________________________________________________________________________
conv2d_22 (Conv2D)              (None, 256, 256, 64) 36928       activation_22[0][0]              
__________________________________________________________________________________________________
add_10 (Add)                    (None, 256, 256, 64) 0           conv2d_22[0][0]                  
                                                                 add_9[0][0]                      
__________________________________________________________________________________________________
batch_normalization_12 (BatchNo (None, 256, 256, 64) 256         add_10[0][0]                     
__________________________________________________________________________________________________
activation_23 (Activation)      (None, 256, 256, 64) 0           batch_normalization_12[0][0]     
__________________________________________________________________________________________________
conv2d_23 (Conv2D)              (None, 256, 256, 64) 36928       activation_23[0][0]              
__________________________________________________________________________________________________
dropout_11 (Dropout)            (None, 256, 256, 64) 0           conv2d_23[0][0]                  
__________________________________________________________________________________________________
activation_24 (Activation)      (None, 256, 256, 64) 0           dropout_11[0][0]                 
__________________________________________________________________________________________________
conv2d_24 (Conv2D)              (None, 256, 256, 64) 36928       activation_24[0][0]              
__________________________________________________________________________________________________
add_11 (Add)                    (None, 256, 256, 64) 0           conv2d_24[0][0]                  
                                                                 add_10[0][0]                     
__________________________________________________________________________________________________
batch_normalization_13 (BatchNo (None, 256, 256, 64) 256         add_11[0][0]                     
__________________________________________________________________________________________________
activation_25 (Activation)      (None, 256, 256, 64) 0           batch_normalization_13[0][0]     
__________________________________________________________________________________________________
conv2d_25 (Conv2D)              (None, 256, 256, 64) 36928       activation_25[0][0]              
__________________________________________________________________________________________________
dropout_12 (Dropout)            (None, 256, 256, 64) 0           conv2d_25[0][0]                  
__________________________________________________________________________________________________
activation_26 (Activation)      (None, 256, 256, 64) 0           dropout_12[0][0]                 
__________________________________________________________________________________________________
conv2d_26 (Conv2D)              (None, 256, 256, 64) 36928       activation_26[0][0]              
__________________________________________________________________________________________________
add_12 (Add)                    (None, 256, 256, 64) 0           conv2d_26[0][0]                  
                                                                 add_11[0][0]                     
__________________________________________________________________________________________________
batch_normalization_14 (BatchNo (None, 256, 256, 64) 256         add_12[0][0]                     
__________________________________________________________________________________________________
activation_27 (Activation)      (None, 256, 256, 64) 0           batch_normalization_14[0][0]     
__________________________________________________________________________________________________
conv2d_27 (Conv2D)              (None, 256, 256, 64) 36928       activation_27[0][0]              
__________________________________________________________________________________________________
dropout_13 (Dropout)            (None, 256, 256, 64) 0           conv2d_27[0][0]                  
__________________________________________________________________________________________________
activation_28 (Activation)      (None, 256, 256, 64) 0           dropout_13[0][0]                 
__________________________________________________________________________________________________
conv2d_28 (Conv2D)              (None, 256, 256, 64) 36928       activation_28[0][0]              
__________________________________________________________________________________________________
add_13 (Add)                    (None, 256, 256, 64) 0           conv2d_28[0][0]                  
                                                                 add_12[0][0]                     
__________________________________________________________________________________________________
batch_normalization_15 (BatchNo (None, 256, 256, 64) 256         add_13[0][0]                     
__________________________________________________________________________________________________
activation_29 (Activation)      (None, 256, 256, 64) 0           batch_normalization_15[0][0]     
__________________________________________________________________________________________________
conv2d_29 (Conv2D)              (None, 256, 256, 64) 36928       activation_29[0][0]              
__________________________________________________________________________________________________
dropout_14 (Dropout)            (None, 256, 256, 64) 0           conv2d_29[0][0]                  
__________________________________________________________________________________________________
activation_30 (Activation)      (None, 256, 256, 64) 0           dropout_14[0][0]                 
__________________________________________________________________________________________________
conv2d_30 (Conv2D)              (None, 256, 256, 64) 36928       activation_30[0][0]              
__________________________________________________________________________________________________
add_14 (Add)                    (None, 256, 256, 64) 0           conv2d_30[0][0]                  
                                                                 add_13[0][0]                     
__________________________________________________________________________________________________
batch_normalization_16 (BatchNo (None, 256, 256, 64) 256         add_14[0][0]                     
__________________________________________________________________________________________________
activation_31 (Activation)      (None, 256, 256, 64) 0           batch_normalization_16[0][0]     
__________________________________________________________________________________________________
conv2d_31 (Conv2D)              (None, 256, 256, 64) 36928       activation_31[0][0]              
__________________________________________________________________________________________________
dropout_15 (Dropout)            (None, 256, 256, 64) 0           conv2d_31[0][0]                  
__________________________________________________________________________________________________
activation_32 (Activation)      (None, 256, 256, 64) 0           dropout_15[0][0]                 
__________________________________________________________________________________________________
conv2d_32 (Conv2D)              (None, 256, 256, 64) 36928       activation_32[0][0]              
__________________________________________________________________________________________________
add_15 (Add)                    (None, 256, 256, 64) 0           conv2d_32[0][0]                  
                                                                 add_14[0][0]                     
__________________________________________________________________________________________________
batch_normalization_17 (BatchNo (None, 256, 256, 64) 256         add_15[0][0]                     
__________________________________________________________________________________________________
activation_33 (Activation)      (None, 256, 256, 64) 0           batch_normalization_17[0][0]     
__________________________________________________________________________________________________
conv2d_33 (Conv2D)              (None, 256, 256, 64) 36928       activation_33[0][0]              
__________________________________________________________________________________________________
dropout_16 (Dropout)            (None, 256, 256, 64) 0           conv2d_33[0][0]                  
__________________________________________________________________________________________________
activation_34 (Activation)      (None, 256, 256, 64) 0           dropout_16[0][0]                 
__________________________________________________________________________________________________
conv2d_34 (Conv2D)              (None, 256, 256, 64) 36928       activation_34[0][0]              
__________________________________________________________________________________________________
add_16 (Add)                    (None, 256, 256, 64) 0           conv2d_34[0][0]                  
                                                                 add_15[0][0]                     
__________________________________________________________________________________________________
batch_normalization_18 (BatchNo (None, 256, 256, 64) 256         add_16[0][0]                     
__________________________________________________________________________________________________
activation_35 (Activation)      (None, 256, 256, 64) 0           batch_normalization_18[0][0]     
__________________________________________________________________________________________________
conv2d_35 (Conv2D)              (None, 256, 256, 64) 36928       activation_35[0][0]              
__________________________________________________________________________________________________
dropout_17 (Dropout)            (None, 256, 256, 64) 0           conv2d_35[0][0]                  
__________________________________________________________________________________________________
activation_36 (Activation)      (None, 256, 256, 64) 0           dropout_17[0][0]                 
__________________________________________________________________________________________________
conv2d_36 (Conv2D)              (None, 256, 256, 64) 36928       activation_36[0][0]              
__________________________________________________________________________________________________
add_17 (Add)                    (None, 256, 256, 64) 0           conv2d_36[0][0]                  
                                                                 add_16[0][0]                     
__________________________________________________________________________________________________
batch_normalization_19 (BatchNo (None, 256, 256, 64) 256         add_17[0][0]                     
__________________________________________________________________________________________________
activation_37 (Activation)      (None, 256, 256, 64) 0           batch_normalization_19[0][0]     
__________________________________________________________________________________________________
conv2d_37 (Conv2D)              (None, 256, 256, 64) 36928       activation_37[0][0]              
__________________________________________________________________________________________________
dropout_18 (Dropout)            (None, 256, 256, 64) 0           conv2d_37[0][0]                  
__________________________________________________________________________________________________
activation_38 (Activation)      (None, 256, 256, 64) 0           dropout_18[0][0]                 
__________________________________________________________________________________________________
conv2d_38 (Conv2D)              (None, 256, 256, 64) 36928       activation_38[0][0]              
__________________________________________________________________________________________________
add_18 (Add)                    (None, 256, 256, 64) 0           conv2d_38[0][0]                  
                                                                 add_17[0][0]                     
__________________________________________________________________________________________________
batch_normalization_20 (BatchNo (None, 256, 256, 64) 256         add_18[0][0]                     
__________________________________________________________________________________________________
activation_39 (Activation)      (None, 256, 256, 64) 0           batch_normalization_20[0][0]     
__________________________________________________________________________________________________
conv2d_39 (Conv2D)              (None, 256, 256, 64) 36928       activation_39[0][0]              
__________________________________________________________________________________________________
dropout_19 (Dropout)            (None, 256, 256, 64) 0           conv2d_39[0][0]                  
__________________________________________________________________________________________________
activation_40 (Activation)      (None, 256, 256, 64) 0           dropout_19[0][0]                 
__________________________________________________________________________________________________
conv2d_40 (Conv2D)              (None, 256, 256, 64) 36928       activation_40[0][0]              
__________________________________________________________________________________________________
add_19 (Add)                    (None, 256, 256, 64) 0           conv2d_40[0][0]                  
                                                                 add_18[0][0]                     
__________________________________________________________________________________________________
batch_normalization_21 (BatchNo (None, 256, 256, 64) 256         add_19[0][0]                     
__________________________________________________________________________________________________
activation_41 (Activation)      (None, 256, 256, 64) 0           batch_normalization_21[0][0]     
__________________________________________________________________________________________________
conv2d_41 (Conv2D)              (None, 256, 256, 64) 36928       activation_41[0][0]              
__________________________________________________________________________________________________
dropout_20 (Dropout)            (None, 256, 256, 64) 0           conv2d_41[0][0]                  
__________________________________________________________________________________________________
activation_42 (Activation)      (None, 256, 256, 64) 0           dropout_20[0][0]                 
__________________________________________________________________________________________________
conv2d_42 (Conv2D)              (None, 256, 256, 64) 36928       activation_42[0][0]              
__________________________________________________________________________________________________
add_20 (Add)                    (None, 256, 256, 64) 0           conv2d_42[0][0]                  
                                                                 add_19[0][0]                     
__________________________________________________________________________________________________
batch_normalization_22 (BatchNo (None, 256, 256, 64) 256         add_20[0][0]                     
__________________________________________________________________________________________________
activation_43 (Activation)      (None, 256, 256, 64) 0           batch_normalization_22[0][0]     
__________________________________________________________________________________________________
conv2d_43 (Conv2D)              (None, 256, 256, 64) 36928       activation_43[0][0]              
__________________________________________________________________________________________________
dropout_21 (Dropout)            (None, 256, 256, 64) 0           conv2d_43[0][0]                  
__________________________________________________________________________________________________
activation_44 (Activation)      (None, 256, 256, 64) 0           dropout_21[0][0]                 
__________________________________________________________________________________________________
conv2d_44 (Conv2D)              (None, 256, 256, 64) 36928       activation_44[0][0]              
__________________________________________________________________________________________________
add_21 (Add)                    (None, 256, 256, 64) 0           conv2d_44[0][0]                  
                                                                 add_20[0][0]                     
__________________________________________________________________________________________________
batch_normalization_23 (BatchNo (None, 256, 256, 64) 256         add_21[0][0]                     
__________________________________________________________________________________________________
activation_45 (Activation)      (None, 256, 256, 64) 0           batch_normalization_23[0][0]     
__________________________________________________________________________________________________
conv2d_45 (Conv2D)              (None, 256, 256, 64) 36928       activation_45[0][0]              
__________________________________________________________________________________________________
dropout_22 (Dropout)            (None, 256, 256, 64) 0           conv2d_45[0][0]                  
__________________________________________________________________________________________________
activation_46 (Activation)      (None, 256, 256, 64) 0           dropout_22[0][0]                 
__________________________________________________________________________________________________
conv2d_46 (Conv2D)              (None, 256, 256, 64) 36928       activation_46[0][0]              
__________________________________________________________________________________________________
add_22 (Add)                    (None, 256, 256, 64) 0           conv2d_46[0][0]                  
                                                                 add_21[0][0]                     
__________________________________________________________________________________________________
batch_normalization_24 (BatchNo (None, 256, 256, 64) 256         add_22[0][0]                     
__________________________________________________________________________________________________
activation_47 (Activation)      (None, 256, 256, 64) 0           batch_normalization_24[0][0]     
__________________________________________________________________________________________________
conv2d_47 (Conv2D)              (None, 256, 256, 64) 36928       activation_47[0][0]              
__________________________________________________________________________________________________
dropout_23 (Dropout)            (None, 256, 256, 64) 0           conv2d_47[0][0]                  
__________________________________________________________________________________________________
activation_48 (Activation)      (None, 256, 256, 64) 0           dropout_23[0][0]                 
__________________________________________________________________________________________________
conv2d_48 (Conv2D)              (None, 256, 256, 64) 36928       activation_48[0][0]              
__________________________________________________________________________________________________
add_23 (Add)                    (None, 256, 256, 64) 0           conv2d_48[0][0]                  
                                                                 add_22[0][0]                     
__________________________________________________________________________________________________
batch_normalization_25 (BatchNo (None, 256, 256, 64) 256         add_23[0][0]                     
__________________________________________________________________________________________________
activation_49 (Activation)      (None, 256, 256, 64) 0           batch_normalization_25[0][0]     
__________________________________________________________________________________________________
conv2d_49 (Conv2D)              (None, 256, 256, 64) 36928       activation_49[0][0]              
__________________________________________________________________________________________________
dropout_24 (Dropout)            (None, 256, 256, 64) 0           conv2d_49[0][0]                  
__________________________________________________________________________________________________
activation_50 (Activation)      (None, 256, 256, 64) 0           dropout_24[0][0]                 
__________________________________________________________________________________________________
conv2d_50 (Conv2D)              (None, 256, 256, 64) 36928       activation_50[0][0]              
__________________________________________________________________________________________________
add_24 (Add)                    (None, 256, 256, 64) 0           conv2d_50[0][0]                  
                                                                 add_23[0][0]                     
__________________________________________________________________________________________________
batch_normalization_26 (BatchNo (None, 256, 256, 64) 256         add_24[0][0]                     
__________________________________________________________________________________________________
activation_51 (Activation)      (None, 256, 256, 64) 0           batch_normalization_26[0][0]     
__________________________________________________________________________________________________
conv2d_51 (Conv2D)              (None, 256, 256, 64) 36928       activation_51[0][0]              
__________________________________________________________________________________________________
dropout_25 (Dropout)            (None, 256, 256, 64) 0           conv2d_51[0][0]                  
__________________________________________________________________________________________________
activation_52 (Activation)      (None, 256, 256, 64) 0           dropout_25[0][0]                 
__________________________________________________________________________________________________
conv2d_52 (Conv2D)              (None, 256, 256, 64) 36928       activation_52[0][0]              
__________________________________________________________________________________________________
add_25 (Add)                    (None, 256, 256, 64) 0           conv2d_52[0][0]                  
                                                                 add_24[0][0]                     
__________________________________________________________________________________________________
batch_normalization_27 (BatchNo (None, 256, 256, 64) 256         add_25[0][0]                     
__________________________________________________________________________________________________
activation_53 (Activation)      (None, 256, 256, 64) 0           batch_normalization_27[0][0]     
__________________________________________________________________________________________________
conv2d_53 (Conv2D)              (None, 256, 256, 64) 36928       activation_53[0][0]              
__________________________________________________________________________________________________
dropout_26 (Dropout)            (None, 256, 256, 64) 0           conv2d_53[0][0]                  
__________________________________________________________________________________________________
activation_54 (Activation)      (None, 256, 256, 64) 0           dropout_26[0][0]                 
__________________________________________________________________________________________________
conv2d_54 (Conv2D)              (None, 256, 256, 64) 36928       activation_54[0][0]              
__________________________________________________________________________________________________
add_26 (Add)                    (None, 256, 256, 64) 0           conv2d_54[0][0]                  
                                                                 add_25[0][0]                     
__________________________________________________________________________________________________
batch_normalization_28 (BatchNo (None, 256, 256, 64) 256         add_26[0][0]                     
__________________________________________________________________________________________________
activation_55 (Activation)      (None, 256, 256, 64) 0           batch_normalization_28[0][0]     
__________________________________________________________________________________________________
conv2d_55 (Conv2D)              (None, 256, 256, 64) 36928       activation_55[0][0]              
__________________________________________________________________________________________________
dropout_27 (Dropout)            (None, 256, 256, 64) 0           conv2d_55[0][0]                  
__________________________________________________________________________________________________
activation_56 (Activation)      (None, 256, 256, 64) 0           dropout_27[0][0]                 
__________________________________________________________________________________________________
conv2d_56 (Conv2D)              (None, 256, 256, 64) 36928       activation_56[0][0]              
__________________________________________________________________________________________________
add_27 (Add)                    (None, 256, 256, 64) 0           conv2d_56[0][0]                  
                                                                 add_26[0][0]                     
__________________________________________________________________________________________________
batch_normalization_29 (BatchNo (None, 256, 256, 64) 256         add_27[0][0]                     
__________________________________________________________________________________________________
activation_57 (Activation)      (None, 256, 256, 64) 0           batch_normalization_29[0][0]     
__________________________________________________________________________________________________
conv2d_57 (Conv2D)              (None, 256, 256, 64) 36928       activation_57[0][0]              
__________________________________________________________________________________________________
dropout_28 (Dropout)            (None, 256, 256, 64) 0           conv2d_57[0][0]                  
__________________________________________________________________________________________________
activation_58 (Activation)      (None, 256, 256, 64) 0           dropout_28[0][0]                 
__________________________________________________________________________________________________
conv2d_58 (Conv2D)              (None, 256, 256, 64) 36928       activation_58[0][0]              
__________________________________________________________________________________________________
add_28 (Add)                    (None, 256, 256, 64) 0           conv2d_58[0][0]                  
                                                                 add_27[0][0]                     
__________________________________________________________________________________________________
batch_normalization_30 (BatchNo (None, 256, 256, 64) 256         add_28[0][0]                     
__________________________________________________________________________________________________
activation_59 (Activation)      (None, 256, 256, 64) 0           batch_normalization_30[0][0]     
__________________________________________________________________________________________________
conv2d_59 (Conv2D)              (None, 256, 256, 64) 36928       activation_59[0][0]              
__________________________________________________________________________________________________
dropout_29 (Dropout)            (None, 256, 256, 64) 0           conv2d_59[0][0]                  
__________________________________________________________________________________________________
activation_60 (Activation)      (None, 256, 256, 64) 0           dropout_29[0][0]                 
__________________________________________________________________________________________________
conv2d_60 (Conv2D)              (None, 256, 256, 64) 36928       activation_60[0][0]              
__________________________________________________________________________________________________
add_29 (Add)                    (None, 256, 256, 64) 0           conv2d_60[0][0]                  
                                                                 add_28[0][0]                     
__________________________________________________________________________________________________
batch_normalization_31 (BatchNo (None, 256, 256, 64) 256         add_29[0][0]                     
__________________________________________________________________________________________________
activation_61 (Activation)      (None, 256, 256, 64) 0           batch_normalization_31[0][0]     
__________________________________________________________________________________________________
conv2d_61 (Conv2D)              (None, 256, 256, 64) 36928       activation_61[0][0]              
__________________________________________________________________________________________________
dropout_30 (Dropout)            (None, 256, 256, 64) 0           conv2d_61[0][0]                  
__________________________________________________________________________________________________
activation_62 (Activation)      (None, 256, 256, 64) 0           dropout_30[0][0]                 
__________________________________________________________________________________________________
conv2d_62 (Conv2D)              (None, 256, 256, 64) 36928       activation_62[0][0]              
__________________________________________________________________________________________________
add_30 (Add)                    (None, 256, 256, 64) 0           conv2d_62[0][0]                  
                                                                 add_29[0][0]                     
__________________________________________________________________________________________________
batch_normalization_32 (BatchNo (None, 256, 256, 64) 256         add_30[0][0]                     
__________________________________________________________________________________________________
activation_63 (Activation)      (None, 256, 256, 64) 0           batch_normalization_32[0][0]     
__________________________________________________________________________________________________
conv2d_63 (Conv2D)              (None, 256, 256, 64) 36928       activation_63[0][0]              
__________________________________________________________________________________________________
dropout_31 (Dropout)            (None, 256, 256, 64) 0           conv2d_63[0][0]                  
__________________________________________________________________________________________________
activation_64 (Activation)      (None, 256, 256, 64) 0           dropout_31[0][0]                 
__________________________________________________________________________________________________
conv2d_64 (Conv2D)              (None, 256, 256, 64) 36928       activation_64[0][0]              
__________________________________________________________________________________________________
add_31 (Add)                    (None, 256, 256, 64) 0           conv2d_64[0][0]                  
                                                                 add_30[0][0]                     
__________________________________________________________________________________________________
batch_normalization_33 (BatchNo (None, 256, 256, 64) 256         add_31[0][0]                     
__________________________________________________________________________________________________
activation_65 (Activation)      (None, 256, 256, 64) 0           batch_normalization_33[0][0]     
__________________________________________________________________________________________________
conv2d_65 (Conv2D)              (None, 256, 256, 64) 36928       activation_65[0][0]              
__________________________________________________________________________________________________
dropout_32 (Dropout)            (None, 256, 256, 64) 0           conv2d_65[0][0]                  
__________________________________________________________________________________________________
activation_66 (Activation)      (None, 256, 256, 64) 0           dropout_32[0][0]                 
__________________________________________________________________________________________________
conv2d_66 (Conv2D)              (None, 256, 256, 64) 36928       activation_66[0][0]              
__________________________________________________________________________________________________
add_32 (Add)                    (None, 256, 256, 64) 0           conv2d_66[0][0]                  
                                                                 add_31[0][0]                     
__________________________________________________________________________________________________
batch_normalization_34 (BatchNo (None, 256, 256, 64) 256         add_32[0][0]                     
__________________________________________________________________________________________________
activation_67 (Activation)      (None, 256, 256, 64) 0           batch_normalization_34[0][0]     
__________________________________________________________________________________________________
conv2d_67 (Conv2D)              (None, 256, 256, 64) 36928       activation_67[0][0]              
__________________________________________________________________________________________________
dropout_33 (Dropout)            (None, 256, 256, 64) 0           conv2d_67[0][0]                  
__________________________________________________________________________________________________
activation_68 (Activation)      (None, 256, 256, 64) 0           dropout_33[0][0]                 
__________________________________________________________________________________________________
conv2d_68 (Conv2D)              (None, 256, 256, 64) 36928       activation_68[0][0]              
__________________________________________________________________________________________________
add_33 (Add)                    (None, 256, 256, 64) 0           conv2d_68[0][0]                  
                                                                 add_32[0][0]                     
__________________________________________________________________________________________________
batch_normalization_35 (BatchNo (None, 256, 256, 64) 256         add_33[0][0]                     
__________________________________________________________________________________________________
activation_69 (Activation)      (None, 256, 256, 64) 0           batch_normalization_35[0][0]     
__________________________________________________________________________________________________
conv2d_69 (Conv2D)              (None, 256, 256, 64) 36928       activation_69[0][0]              
__________________________________________________________________________________________________
dropout_34 (Dropout)            (None, 256, 256, 64) 0           conv2d_69[0][0]                  
__________________________________________________________________________________________________
activation_70 (Activation)      (None, 256, 256, 64) 0           dropout_34[0][0]                 
__________________________________________________________________________________________________
conv2d_70 (Conv2D)              (None, 256, 256, 64) 36928       activation_70[0][0]              
__________________________________________________________________________________________________
add_34 (Add)                    (None, 256, 256, 64) 0           conv2d_70[0][0]                  
                                                                 add_33[0][0]                     
__________________________________________________________________________________________________
batch_normalization_36 (BatchNo (None, 256, 256, 64) 256         add_34[0][0]                     
__________________________________________________________________________________________________
activation_71 (Activation)      (None, 256, 256, 64) 0           batch_normalization_36[0][0]     
__________________________________________________________________________________________________
conv2d_71 (Conv2D)              (None, 256, 256, 64) 36928       activation_71[0][0]              
__________________________________________________________________________________________________
dropout_35 (Dropout)            (None, 256, 256, 64) 0           conv2d_71[0][0]                  
__________________________________________________________________________________________________
activation_72 (Activation)      (None, 256, 256, 64) 0           dropout_35[0][0]                 
__________________________________________________________________________________________________
conv2d_72 (Conv2D)              (None, 256, 256, 64) 36928       activation_72[0][0]              
__________________________________________________________________________________________________
add_35 (Add)                    (None, 256, 256, 64) 0           conv2d_72[0][0]                  
                                                                 add_34[0][0]                     
__________________________________________________________________________________________________
batch_normalization_37 (BatchNo (None, 256, 256, 64) 256         add_35[0][0]                     
__________________________________________________________________________________________________
activation_73 (Activation)      (None, 256, 256, 64) 0           batch_normalization_37[0][0]     
__________________________________________________________________________________________________
conv2d_73 (Conv2D)              (None, 256, 256, 64) 36928       activation_73[0][0]              
__________________________________________________________________________________________________
dropout_36 (Dropout)            (None, 256, 256, 64) 0           conv2d_73[0][0]                  
__________________________________________________________________________________________________
activation_74 (Activation)      (None, 256, 256, 64) 0           dropout_36[0][0]                 
__________________________________________________________________________________________________
conv2d_74 (Conv2D)              (None, 256, 256, 64) 36928       activation_74[0][0]              
__________________________________________________________________________________________________
add_36 (Add)                    (None, 256, 256, 64) 0           conv2d_74[0][0]                  
                                                                 add_35[0][0]                     
__________________________________________________________________________________________________
batch_normalization_38 (BatchNo (None, 256, 256, 64) 256         add_36[0][0]                     
__________________________________________________________________________________________________
activation_75 (Activation)      (None, 256, 256, 64) 0           batch_normalization_38[0][0]     
__________________________________________________________________________________________________
conv2d_75 (Conv2D)              (None, 256, 256, 64) 36928       activation_75[0][0]              
__________________________________________________________________________________________________
dropout_37 (Dropout)            (None, 256, 256, 64) 0           conv2d_75[0][0]                  
__________________________________________________________________________________________________
activation_76 (Activation)      (None, 256, 256, 64) 0           dropout_37[0][0]                 
__________________________________________________________________________________________________
conv2d_76 (Conv2D)              (None, 256, 256, 64) 36928       activation_76[0][0]              
__________________________________________________________________________________________________
add_37 (Add)                    (None, 256, 256, 64) 0           conv2d_76[0][0]                  
                                                                 add_36[0][0]                     
__________________________________________________________________________________________________
batch_normalization_39 (BatchNo (None, 256, 256, 64) 256         add_37[0][0]                     
__________________________________________________________________________________________________
activation_77 (Activation)      (None, 256, 256, 64) 0           batch_normalization_39[0][0]     
__________________________________________________________________________________________________
conv2d_77 (Conv2D)              (None, 256, 256, 64) 36928       activation_77[0][0]              
__________________________________________________________________________________________________
dropout_38 (Dropout)            (None, 256, 256, 64) 0           conv2d_77[0][0]                  
__________________________________________________________________________________________________
activation_78 (Activation)      (None, 256, 256, 64) 0           dropout_38[0][0]                 
__________________________________________________________________________________________________
conv2d_78 (Conv2D)              (None, 256, 256, 64) 36928       activation_78[0][0]              
__________________________________________________________________________________________________
add_38 (Add)                    (None, 256, 256, 64) 0           conv2d_78[0][0]                  
                                                                 add_37[0][0]                     
__________________________________________________________________________________________________
batch_normalization_40 (BatchNo (None, 256, 256, 64) 256         add_38[0][0]                     
__________________________________________________________________________________________________
activation_79 (Activation)      (None, 256, 256, 64) 0           batch_normalization_40[0][0]     
__________________________________________________________________________________________________
conv2d_79 (Conv2D)              (None, 256, 256, 64) 36928       activation_79[0][0]              
__________________________________________________________________________________________________
dropout_39 (Dropout)            (None, 256, 256, 64) 0           conv2d_79[0][0]                  
__________________________________________________________________________________________________
activation_80 (Activation)      (None, 256, 256, 64) 0           dropout_39[0][0]                 
__________________________________________________________________________________________________
conv2d_80 (Conv2D)              (None, 256, 256, 64) 36928       activation_80[0][0]              
__________________________________________________________________________________________________
add_39 (Add)                    (None, 256, 256, 64) 0           conv2d_80[0][0]                  
                                                                 add_38[0][0]                     
__________________________________________________________________________________________________
batch_normalization_41 (BatchNo (None, 256, 256, 64) 256         add_39[0][0]                     
__________________________________________________________________________________________________
activation_81 (Activation)      (None, 256, 256, 64) 0           batch_normalization_41[0][0]     
__________________________________________________________________________________________________
conv2d_81 (Conv2D)              (None, 256, 256, 64) 36928       activation_81[0][0]              
__________________________________________________________________________________________________
dropout_40 (Dropout)            (None, 256, 256, 64) 0           conv2d_81[0][0]                  
__________________________________________________________________________________________________
activation_82 (Activation)      (None, 256, 256, 64) 0           dropout_40[0][0]                 
__________________________________________________________________________________________________
conv2d_82 (Conv2D)              (None, 256, 256, 64) 36928       activation_82[0][0]              
__________________________________________________________________________________________________
add_40 (Add)                    (None, 256, 256, 64) 0           conv2d_82[0][0]                  
                                                                 add_39[0][0]                     
__________________________________________________________________________________________________
batch_normalization_42 (BatchNo (None, 256, 256, 64) 256         add_40[0][0]                     
__________________________________________________________________________________________________
activation_83 (Activation)      (None, 256, 256, 64) 0           batch_normalization_42[0][0]     
__________________________________________________________________________________________________
conv2d_83 (Conv2D)              (None, 256, 256, 64) 36928       activation_83[0][0]              
__________________________________________________________________________________________________
dropout_41 (Dropout)            (None, 256, 256, 64) 0           conv2d_83[0][0]                  
__________________________________________________________________________________________________
activation_84 (Activation)      (None, 256, 256, 64) 0           dropout_41[0][0]                 
__________________________________________________________________________________________________
conv2d_84 (Conv2D)              (None, 256, 256, 64) 36928       activation_84[0][0]              
__________________________________________________________________________________________________
add_41 (Add)                    (None, 256, 256, 64) 0           conv2d_84[0][0]                  
                                                                 add_40[0][0]                     
__________________________________________________________________________________________________
batch_normalization_43 (BatchNo (None, 256, 256, 64) 256         add_41[0][0]                     
__________________________________________________________________________________________________
activation_85 (Activation)      (None, 256, 256, 64) 0           batch_normalization_43[0][0]     
__________________________________________________________________________________________________
conv2d_85 (Conv2D)              (None, 256, 256, 64) 36928       activation_85[0][0]              
__________________________________________________________________________________________________
dropout_42 (Dropout)            (None, 256, 256, 64) 0           conv2d_85[0][0]                  
__________________________________________________________________________________________________
activation_86 (Activation)      (None, 256, 256, 64) 0           dropout_42[0][0]                 
__________________________________________________________________________________________________
conv2d_86 (Conv2D)              (None, 256, 256, 64) 36928       activation_86[0][0]              
__________________________________________________________________________________________________
add_42 (Add)                    (None, 256, 256, 64) 0           conv2d_86[0][0]                  
                                                                 add_41[0][0]                     
__________________________________________________________________________________________________
batch_normalization_44 (BatchNo (None, 256, 256, 64) 256         add_42[0][0]                     
__________________________________________________________________________________________________
activation_87 (Activation)      (None, 256, 256, 64) 0           batch_normalization_44[0][0]     
__________________________________________________________________________________________________
conv2d_87 (Conv2D)              (None, 256, 256, 64) 36928       activation_87[0][0]              
__________________________________________________________________________________________________
dropout_43 (Dropout)            (None, 256, 256, 64) 0           conv2d_87[0][0]                  
__________________________________________________________________________________________________
activation_88 (Activation)      (None, 256, 256, 64) 0           dropout_43[0][0]                 
__________________________________________________________________________________________________
conv2d_88 (Conv2D)              (None, 256, 256, 64) 36928       activation_88[0][0]              
__________________________________________________________________________________________________
add_43 (Add)                    (None, 256, 256, 64) 0           conv2d_88[0][0]                  
                                                                 add_42[0][0]                     
__________________________________________________________________________________________________
batch_normalization_45 (BatchNo (None, 256, 256, 64) 256         add_43[0][0]                     
__________________________________________________________________________________________________
activation_89 (Activation)      (None, 256, 256, 64) 0           batch_normalization_45[0][0]     
__________________________________________________________________________________________________
conv2d_89 (Conv2D)              (None, 256, 256, 64) 36928       activation_89[0][0]              
__________________________________________________________________________________________________
dropout_44 (Dropout)            (None, 256, 256, 64) 0           conv2d_89[0][0]                  
__________________________________________________________________________________________________
activation_90 (Activation)      (None, 256, 256, 64) 0           dropout_44[0][0]                 
__________________________________________________________________________________________________
conv2d_90 (Conv2D)              (None, 256, 256, 64) 36928       activation_90[0][0]              
__________________________________________________________________________________________________
add_44 (Add)                    (None, 256, 256, 64) 0           conv2d_90[0][0]                  
                                                                 add_43[0][0]                     
__________________________________________________________________________________________________
batch_normalization_46 (BatchNo (None, 256, 256, 64) 256         add_44[0][0]                     
__________________________________________________________________________________________________
activation_91 (Activation)      (None, 256, 256, 64) 0           batch_normalization_46[0][0]     
__________________________________________________________________________________________________
conv2d_91 (Conv2D)              (None, 256, 256, 64) 36928       activation_91[0][0]              
__________________________________________________________________________________________________
dropout_45 (Dropout)            (None, 256, 256, 64) 0           conv2d_91[0][0]                  
__________________________________________________________________________________________________
activation_92 (Activation)      (None, 256, 256, 64) 0           dropout_45[0][0]                 
__________________________________________________________________________________________________
conv2d_92 (Conv2D)              (None, 256, 256, 64) 36928       activation_92[0][0]              
__________________________________________________________________________________________________
add_45 (Add)                    (None, 256, 256, 64) 0           conv2d_92[0][0]                  
                                                                 add_44[0][0]                     
__________________________________________________________________________________________________
batch_normalization_47 (BatchNo (None, 256, 256, 64) 256         add_45[0][0]                     
__________________________________________________________________________________________________
activation_93 (Activation)      (None, 256, 256, 64) 0           batch_normalization_47[0][0]     
__________________________________________________________________________________________________
conv2d_93 (Conv2D)              (None, 256, 256, 64) 36928       activation_93[0][0]              
__________________________________________________________________________________________________
dropout_46 (Dropout)            (None, 256, 256, 64) 0           conv2d_93[0][0]                  
__________________________________________________________________________________________________
activation_94 (Activation)      (None, 256, 256, 64) 0           dropout_46[0][0]                 
__________________________________________________________________________________________________
conv2d_94 (Conv2D)              (None, 256, 256, 64) 36928       activation_94[0][0]              
__________________________________________________________________________________________________
add_46 (Add)                    (None, 256, 256, 64) 0           conv2d_94[0][0]                  
                                                                 add_45[0][0]                     
__________________________________________________________________________________________________
batch_normalization_48 (BatchNo (None, 256, 256, 64) 256         add_46[0][0]                     
__________________________________________________________________________________________________
activation_95 (Activation)      (None, 256, 256, 64) 0           batch_normalization_48[0][0]     
__________________________________________________________________________________________________
conv2d_95 (Conv2D)              (None, 256, 256, 64) 36928       activation_95[0][0]              
__________________________________________________________________________________________________
dropout_47 (Dropout)            (None, 256, 256, 64) 0           conv2d_95[0][0]                  
__________________________________________________________________________________________________
activation_96 (Activation)      (None, 256, 256, 64) 0           dropout_47[0][0]                 
__________________________________________________________________________________________________
conv2d_96 (Conv2D)              (None, 256, 256, 64) 36928       activation_96[0][0]              
__________________________________________________________________________________________________
add_47 (Add)                    (None, 256, 256, 64) 0           conv2d_96[0][0]                  
                                                                 add_46[0][0]                     
__________________________________________________________________________________________________
batch_normalization_49 (BatchNo (None, 256, 256, 64) 256         add_47[0][0]                     
__________________________________________________________________________________________________
activation_97 (Activation)      (None, 256, 256, 64) 0           batch_normalization_49[0][0]     
__________________________________________________________________________________________________
conv2d_97 (Conv2D)              (None, 256, 256, 64) 36928       activation_97[0][0]              
__________________________________________________________________________________________________
dropout_48 (Dropout)            (None, 256, 256, 64) 0           conv2d_97[0][0]                  
__________________________________________________________________________________________________
activation_98 (Activation)      (None, 256, 256, 64) 0           dropout_48[0][0]                 
__________________________________________________________________________________________________
conv2d_98 (Conv2D)              (None, 256, 256, 64) 36928       activation_98[0][0]              
__________________________________________________________________________________________________
add_48 (Add)                    (None, 256, 256, 64) 0           conv2d_98[0][0]                  
                                                                 add_47[0][0]                     
__________________________________________________________________________________________________
batch_normalization_50 (BatchNo (None, 256, 256, 64) 256         add_48[0][0]                     
__________________________________________________________________________________________________
activation_99 (Activation)      (None, 256, 256, 64) 0           batch_normalization_50[0][0]     
__________________________________________________________________________________________________
conv2d_99 (Conv2D)              (None, 256, 256, 64) 36928       activation_99[0][0]              
__________________________________________________________________________________________________
dropout_49 (Dropout)            (None, 256, 256, 64) 0           conv2d_99[0][0]                  
__________________________________________________________________________________________________
activation_100 (Activation)     (None, 256, 256, 64) 0           dropout_49[0][0]                 
__________________________________________________________________________________________________
conv2d_100 (Conv2D)             (None, 256, 256, 64) 36928       activation_100[0][0]             
__________________________________________________________________________________________________
add_49 (Add)                    (None, 256, 256, 64) 0           conv2d_100[0][0]                 
                                                                 add_48[0][0]                     
__________________________________________________________________________________________________
batch_normalization_51 (BatchNo (None, 256, 256, 64) 256         add_49[0][0]                     
__________________________________________________________________________________________________
activation_101 (Activation)     (None, 256, 256, 64) 0           batch_normalization_51[0][0]     
__________________________________________________________________________________________________
conv2d_101 (Conv2D)             (None, 256, 256, 64) 36928       activation_101[0][0]             
__________________________________________________________________________________________________
dropout_50 (Dropout)            (None, 256, 256, 64) 0           conv2d_101[0][0]                 
__________________________________________________________________________________________________
activation_102 (Activation)     (None, 256, 256, 64) 0           dropout_50[0][0]                 
__________________________________________________________________________________________________
conv2d_102 (Conv2D)             (None, 256, 256, 64) 36928       activation_102[0][0]             
__________________________________________________________________________________________________
add_50 (Add)                    (None, 256, 256, 64) 0           conv2d_102[0][0]                 
                                                                 add_49[0][0]                     
__________________________________________________________________________________________________
batch_normalization_52 (BatchNo (None, 256, 256, 64) 256         add_50[0][0]                     
__________________________________________________________________________________________________
activation_103 (Activation)     (None, 256, 256, 64) 0           batch_normalization_52[0][0]     
__________________________________________________________________________________________________
conv2d_103 (Conv2D)             (None, 256, 256, 64) 36928       activation_103[0][0]             
__________________________________________________________________________________________________
dropout_51 (Dropout)            (None, 256, 256, 64) 0           conv2d_103[0][0]                 
__________________________________________________________________________________________________
activation_104 (Activation)     (None, 256, 256, 64) 0           dropout_51[0][0]                 
__________________________________________________________________________________________________
conv2d_104 (Conv2D)             (None, 256, 256, 64) 36928       activation_104[0][0]             
__________________________________________________________________________________________________
add_51 (Add)                    (None, 256, 256, 64) 0           conv2d_104[0][0]                 
                                                                 add_50[0][0]                     
__________________________________________________________________________________________________
batch_normalization_53 (BatchNo (None, 256, 256, 64) 256         add_51[0][0]                     
__________________________________________________________________________________________________
activation_105 (Activation)     (None, 256, 256, 64) 0           batch_normalization_53[0][0]     
__________________________________________________________________________________________________
conv2d_105 (Conv2D)             (None, 256, 256, 64) 36928       activation_105[0][0]             
__________________________________________________________________________________________________
dropout_52 (Dropout)            (None, 256, 256, 64) 0           conv2d_105[0][0]                 
__________________________________________________________________________________________________
activation_106 (Activation)     (None, 256, 256, 64) 0           dropout_52[0][0]                 
__________________________________________________________________________________________________
conv2d_106 (Conv2D)             (None, 256, 256, 64) 36928       activation_106[0][0]             
__________________________________________________________________________________________________
add_52 (Add)                    (None, 256, 256, 64) 0           conv2d_106[0][0]                 
                                                                 add_51[0][0]                     
__________________________________________________________________________________________________
batch_normalization_54 (BatchNo (None, 256, 256, 64) 256         add_52[0][0]                     
__________________________________________________________________________________________________
activation_107 (Activation)     (None, 256, 256, 64) 0           batch_normalization_54[0][0]     
__________________________________________________________________________________________________
conv2d_107 (Conv2D)             (None, 256, 256, 64) 36928       activation_107[0][0]             
__________________________________________________________________________________________________
dropout_53 (Dropout)            (None, 256, 256, 64) 0           conv2d_107[0][0]                 
__________________________________________________________________________________________________
activation_108 (Activation)     (None, 256, 256, 64) 0           dropout_53[0][0]                 
__________________________________________________________________________________________________
conv2d_108 (Conv2D)             (None, 256, 256, 64) 36928       activation_108[0][0]             
__________________________________________________________________________________________________
add_53 (Add)                    (None, 256, 256, 64) 0           conv2d_108[0][0]                 
                                                                 add_52[0][0]                     
__________________________________________________________________________________________________
batch_normalization_55 (BatchNo (None, 256, 256, 64) 256         add_53[0][0]                     
__________________________________________________________________________________________________
activation_109 (Activation)     (None, 256, 256, 64) 0           batch_normalization_55[0][0]     
__________________________________________________________________________________________________
conv2d_109 (Conv2D)             (None, 256, 256, 64) 36928       activation_109[0][0]             
__________________________________________________________________________________________________
dropout_54 (Dropout)            (None, 256, 256, 64) 0           conv2d_109[0][0]                 
__________________________________________________________________________________________________
activation_110 (Activation)     (None, 256, 256, 64) 0           dropout_54[0][0]                 
__________________________________________________________________________________________________
conv2d_110 (Conv2D)             (None, 256, 256, 64) 36928       activation_110[0][0]             
__________________________________________________________________________________________________
add_54 (Add)                    (None, 256, 256, 64) 0           conv2d_110[0][0]                 
                                                                 add_53[0][0]                     
__________________________________________________________________________________________________
batch_normalization_56 (BatchNo (None, 256, 256, 64) 256         add_54[0][0]                     
__________________________________________________________________________________________________
activation_111 (Activation)     (None, 256, 256, 64) 0           batch_normalization_56[0][0]     
__________________________________________________________________________________________________
conv2d_111 (Conv2D)             (None, 256, 256, 64) 36928       activation_111[0][0]             
__________________________________________________________________________________________________
dropout_55 (Dropout)            (None, 256, 256, 64) 0           conv2d_111[0][0]                 
__________________________________________________________________________________________________
activation_112 (Activation)     (None, 256, 256, 64) 0           dropout_55[0][0]                 
__________________________________________________________________________________________________
conv2d_112 (Conv2D)             (None, 256, 256, 64) 36928       activation_112[0][0]             
__________________________________________________________________________________________________
add_55 (Add)                    (None, 256, 256, 64) 0           conv2d_112[0][0]                 
                                                                 add_54[0][0]                     
__________________________________________________________________________________________________
batch_normalization_57 (BatchNo (None, 256, 256, 64) 256         add_55[0][0]                     
__________________________________________________________________________________________________
activation_113 (Activation)     (None, 256, 256, 64) 0           batch_normalization_57[0][0]     
__________________________________________________________________________________________________
conv2d_113 (Conv2D)             (None, 256, 256, 64) 36928       activation_113[0][0]             
__________________________________________________________________________________________________
dropout_56 (Dropout)            (None, 256, 256, 64) 0           conv2d_113[0][0]                 
__________________________________________________________________________________________________
activation_114 (Activation)     (None, 256, 256, 64) 0           dropout_56[0][0]                 
__________________________________________________________________________________________________
conv2d_114 (Conv2D)             (None, 256, 256, 64) 36928       activation_114[0][0]             
__________________________________________________________________________________________________
add_56 (Add)                    (None, 256, 256, 64) 0           conv2d_114[0][0]                 
                                                                 add_55[0][0]                     
__________________________________________________________________________________________________
batch_normalization_58 (BatchNo (None, 256, 256, 64) 256         add_56[0][0]                     
__________________________________________________________________________________________________
activation_115 (Activation)     (None, 256, 256, 64) 0           batch_normalization_58[0][0]     
__________________________________________________________________________________________________
conv2d_115 (Conv2D)             (None, 256, 256, 64) 36928       activation_115[0][0]             
__________________________________________________________________________________________________
dropout_57 (Dropout)            (None, 256, 256, 64) 0           conv2d_115[0][0]                 
__________________________________________________________________________________________________
activation_116 (Activation)     (None, 256, 256, 64) 0           dropout_57[0][0]                 
__________________________________________________________________________________________________
conv2d_116 (Conv2D)             (None, 256, 256, 64) 36928       activation_116[0][0]             
__________________________________________________________________________________________________
add_57 (Add)                    (None, 256, 256, 64) 0           conv2d_116[0][0]                 
                                                                 add_56[0][0]                     
__________________________________________________________________________________________________
batch_normalization_59 (BatchNo (None, 256, 256, 64) 256         add_57[0][0]                     
__________________________________________________________________________________________________
activation_117 (Activation)     (None, 256, 256, 64) 0           batch_normalization_59[0][0]     
__________________________________________________________________________________________________
conv2d_117 (Conv2D)             (None, 256, 256, 64) 36928       activation_117[0][0]             
__________________________________________________________________________________________________
dropout_58 (Dropout)            (None, 256, 256, 64) 0           conv2d_117[0][0]                 
__________________________________________________________________________________________________
activation_118 (Activation)     (None, 256, 256, 64) 0           dropout_58[0][0]                 
__________________________________________________________________________________________________
conv2d_118 (Conv2D)             (None, 256, 256, 64) 36928       activation_118[0][0]             
__________________________________________________________________________________________________
add_58 (Add)                    (None, 256, 256, 64) 0           conv2d_118[0][0]                 
                                                                 add_57[0][0]                     
__________________________________________________________________________________________________
batch_normalization_60 (BatchNo (None, 256, 256, 64) 256         add_58[0][0]                     
__________________________________________________________________________________________________
activation_119 (Activation)     (None, 256, 256, 64) 0           batch_normalization_60[0][0]     
__________________________________________________________________________________________________
conv2d_119 (Conv2D)             (None, 256, 256, 64) 36928       activation_119[0][0]             
__________________________________________________________________________________________________
dropout_59 (Dropout)            (None, 256, 256, 64) 0           conv2d_119[0][0]                 
__________________________________________________________________________________________________
activation_120 (Activation)     (None, 256, 256, 64) 0           dropout_59[0][0]                 
__________________________________________________________________________________________________
conv2d_120 (Conv2D)             (None, 256, 256, 64) 36928       activation_120[0][0]             
__________________________________________________________________________________________________
add_59 (Add)                    (None, 256, 256, 64) 0           conv2d_120[0][0]                 
                                                                 add_58[0][0]                     
__________________________________________________________________________________________________
batch_normalization_61 (BatchNo (None, 256, 256, 64) 256         add_59[0][0]                     
__________________________________________________________________________________________________
activation_121 (Activation)     (None, 256, 256, 64) 0           batch_normalization_61[0][0]     
__________________________________________________________________________________________________
conv2d_121 (Conv2D)             (None, 256, 256, 64) 36928       activation_121[0][0]             
__________________________________________________________________________________________________
dropout_60 (Dropout)            (None, 256, 256, 64) 0           conv2d_121[0][0]                 
__________________________________________________________________________________________________
activation_122 (Activation)     (None, 256, 256, 64) 0           dropout_60[0][0]                 
__________________________________________________________________________________________________
conv2d_122 (Conv2D)             (None, 256, 256, 64) 36928       activation_122[0][0]             
__________________________________________________________________________________________________
add_60 (Add)                    (None, 256, 256, 64) 0           conv2d_122[0][0]                 
                                                                 add_59[0][0]                     
__________________________________________________________________________________________________
batch_normalization_62 (BatchNo (None, 256, 256, 64) 256         add_60[0][0]                     
__________________________________________________________________________________________________
activation_123 (Activation)     (None, 256, 256, 64) 0           batch_normalization_62[0][0]     
__________________________________________________________________________________________________
conv2d_123 (Conv2D)             (None, 256, 256, 64) 36928       activation_123[0][0]             
__________________________________________________________________________________________________
dropout_61 (Dropout)            (None, 256, 256, 64) 0           conv2d_123[0][0]                 
__________________________________________________________________________________________________
activation_124 (Activation)     (None, 256, 256, 64) 0           dropout_61[0][0]                 
__________________________________________________________________________________________________
conv2d_124 (Conv2D)             (None, 256, 256, 64) 36928       activation_124[0][0]             
__________________________________________________________________________________________________
add_61 (Add)                    (None, 256, 256, 64) 0           conv2d_124[0][0]                 
                                                                 add_60[0][0]                     
__________________________________________________________________________________________________
batch_normalization_63 (BatchNo (None, 256, 256, 64) 256         add_61[0][0]                     
__________________________________________________________________________________________________
activation_125 (Activation)     (None, 256, 256, 64) 0           batch_normalization_63[0][0]     
__________________________________________________________________________________________________
conv2d_125 (Conv2D)             (None, 256, 256, 64) 36928       activation_125[0][0]             
__________________________________________________________________________________________________
dropout_62 (Dropout)            (None, 256, 256, 64) 0           conv2d_125[0][0]                 
__________________________________________________________________________________________________
activation_126 (Activation)     (None, 256, 256, 64) 0           dropout_62[0][0]                 
__________________________________________________________________________________________________
conv2d_126 (Conv2D)             (None, 256, 256, 64) 36928       activation_126[0][0]             
__________________________________________________________________________________________________
add_62 (Add)                    (None, 256, 256, 64) 0           conv2d_126[0][0]                 
                                                                 add_61[0][0]                     
__________________________________________________________________________________________________
batch_normalization_64 (BatchNo (None, 256, 256, 64) 256         add_62[0][0]                     
__________________________________________________________________________________________________
activation_127 (Activation)     (None, 256, 256, 64) 0           batch_normalization_64[0][0]     
__________________________________________________________________________________________________
conv2d_127 (Conv2D)             (None, 256, 256, 64) 36928       activation_127[0][0]             
__________________________________________________________________________________________________
dropout_63 (Dropout)            (None, 256, 256, 64) 0           conv2d_127[0][0]                 
__________________________________________________________________________________________________
activation_128 (Activation)     (None, 256, 256, 64) 0           dropout_63[0][0]                 
__________________________________________________________________________________________________
conv2d_128 (Conv2D)             (None, 256, 256, 64) 36928       activation_128[0][0]             
__________________________________________________________________________________________________
add_63 (Add)                    (None, 256, 256, 64) 0           conv2d_128[0][0]                 
                                                                 add_62[0][0]                     
__________________________________________________________________________________________________
batch_normalization_65 (BatchNo (None, 256, 256, 64) 256         add_63[0][0]                     
__________________________________________________________________________________________________
activation_129 (Activation)     (None, 256, 256, 64) 0           batch_normalization_65[0][0]     
__________________________________________________________________________________________________
conv2d_129 (Conv2D)             (None, 256, 256, 64) 36928       activation_129[0][0]             
__________________________________________________________________________________________________
dropout_64 (Dropout)            (None, 256, 256, 64) 0           conv2d_129[0][0]                 
__________________________________________________________________________________________________
activation_130 (Activation)     (None, 256, 256, 64) 0           dropout_64[0][0]                 
__________________________________________________________________________________________________
conv2d_130 (Conv2D)             (None, 256, 256, 64) 36928       activation_130[0][0]             
__________________________________________________________________________________________________
add_64 (Add)                    (None, 256, 256, 64) 0           conv2d_130[0][0]                 
                                                                 add_63[0][0]                     
__________________________________________________________________________________________________
batch_normalization_66 (BatchNo (None, 256, 256, 64) 256         add_64[0][0]                     
__________________________________________________________________________________________________
activation_131 (Activation)     (None, 256, 256, 64) 0           batch_normalization_66[0][0]     
__________________________________________________________________________________________________
conv2d_131 (Conv2D)             (None, 256, 256, 64) 36928       activation_131[0][0]             
__________________________________________________________________________________________________
dropout_65 (Dropout)            (None, 256, 256, 64) 0           conv2d_131[0][0]                 
__________________________________________________________________________________________________
activation_132 (Activation)     (None, 256, 256, 64) 0           dropout_65[0][0]                 
__________________________________________________________________________________________________
conv2d_132 (Conv2D)             (None, 256, 256, 64) 36928       activation_132[0][0]             
__________________________________________________________________________________________________
add_65 (Add)                    (None, 256, 256, 64) 0           conv2d_132[0][0]                 
                                                                 add_64[0][0]                     
__________________________________________________________________________________________________
batch_normalization_67 (BatchNo (None, 256, 256, 64) 256         add_65[0][0]                     
__________________________________________________________________________________________________
activation_133 (Activation)     (None, 256, 256, 64) 0           batch_normalization_67[0][0]     
__________________________________________________________________________________________________
conv2d_133 (Conv2D)             (None, 256, 256, 64) 36928       activation_133[0][0]             
__________________________________________________________________________________________________
dropout_66 (Dropout)            (None, 256, 256, 64) 0           conv2d_133[0][0]                 
__________________________________________________________________________________________________
activation_134 (Activation)     (None, 256, 256, 64) 0           dropout_66[0][0]                 
__________________________________________________________________________________________________
conv2d_134 (Conv2D)             (None, 256, 256, 64) 36928       activation_134[0][0]             
__________________________________________________________________________________________________
add_66 (Add)                    (None, 256, 256, 64) 0           conv2d_134[0][0]                 
                                                                 add_65[0][0]                     
__________________________________________________________________________________________________
batch_normalization_68 (BatchNo (None, 256, 256, 64) 256         add_66[0][0]                     
__________________________________________________________________________________________________
activation_135 (Activation)     (None, 256, 256, 64) 0           batch_normalization_68[0][0]     
__________________________________________________________________________________________________
conv2d_135 (Conv2D)             (None, 256, 256, 64) 36928       activation_135[0][0]             
__________________________________________________________________________________________________
dropout_67 (Dropout)            (None, 256, 256, 64) 0           conv2d_135[0][0]                 
__________________________________________________________________________________________________
activation_136 (Activation)     (None, 256, 256, 64) 0           dropout_67[0][0]                 
__________________________________________________________________________________________________
conv2d_136 (Conv2D)             (None, 256, 256, 64) 36928       activation_136[0][0]             
__________________________________________________________________________________________________
add_67 (Add)                    (None, 256, 256, 64) 0           conv2d_136[0][0]                 
                                                                 add_66[0][0]                     
__________________________________________________________________________________________________
batch_normalization_69 (BatchNo (None, 256, 256, 64) 256         add_67[0][0]                     
__________________________________________________________________________________________________
activation_137 (Activation)     (None, 256, 256, 64) 0           batch_normalization_69[0][0]     
__________________________________________________________________________________________________
conv2d_137 (Conv2D)             (None, 256, 256, 64) 36928       activation_137[0][0]             
__________________________________________________________________________________________________
dropout_68 (Dropout)            (None, 256, 256, 64) 0           conv2d_137[0][0]                 
__________________________________________________________________________________________________
activation_138 (Activation)     (None, 256, 256, 64) 0           dropout_68[0][0]                 
__________________________________________________________________________________________________
conv2d_138 (Conv2D)             (None, 256, 256, 64) 36928       activation_138[0][0]             
__________________________________________________________________________________________________
add_68 (Add)                    (None, 256, 256, 64) 0           conv2d_138[0][0]                 
                                                                 add_67[0][0]                     
__________________________________________________________________________________________________
batch_normalization_70 (BatchNo (None, 256, 256, 64) 256         add_68[0][0]                     
__________________________________________________________________________________________________
activation_139 (Activation)     (None, 256, 256, 64) 0           batch_normalization_70[0][0]     
__________________________________________________________________________________________________
conv2d_139 (Conv2D)             (None, 256, 256, 64) 36928       activation_139[0][0]             
__________________________________________________________________________________________________
dropout_69 (Dropout)            (None, 256, 256, 64) 0           conv2d_139[0][0]                 
__________________________________________________________________________________________________
activation_140 (Activation)     (None, 256, 256, 64) 0           dropout_69[0][0]                 
__________________________________________________________________________________________________
conv2d_140 (Conv2D)             (None, 256, 256, 64) 36928       activation_140[0][0]             
__________________________________________________________________________________________________
add_69 (Add)                    (None, 256, 256, 64) 0           conv2d_140[0][0]                 
                                                                 add_68[0][0]                     
__________________________________________________________________________________________________
batch_normalization_71 (BatchNo (None, 256, 256, 64) 256         add_69[0][0]                     
__________________________________________________________________________________________________
activation_141 (Activation)     (None, 256, 256, 64) 0           batch_normalization_71[0][0]     
__________________________________________________________________________________________________
conv2d_141 (Conv2D)             (None, 256, 256, 64) 36928       activation_141[0][0]             
__________________________________________________________________________________________________
dropout_70 (Dropout)            (None, 256, 256, 64) 0           conv2d_141[0][0]                 
__________________________________________________________________________________________________
activation_142 (Activation)     (None, 256, 256, 64) 0           dropout_70[0][0]                 
__________________________________________________________________________________________________
conv2d_142 (Conv2D)             (None, 256, 256, 64) 36928       activation_142[0][0]             
__________________________________________________________________________________________________
add_70 (Add)                    (None, 256, 256, 64) 0           conv2d_142[0][0]                 
                                                                 add_69[0][0]                     
__________________________________________________________________________________________________
batch_normalization_72 (BatchNo (None, 256, 256, 64) 256         add_70[0][0]                     
__________________________________________________________________________________________________
activation_143 (Activation)     (None, 256, 256, 64) 0           batch_normalization_72[0][0]     
__________________________________________________________________________________________________
conv2d_143 (Conv2D)             (None, 256, 256, 64) 36928       activation_143[0][0]             
__________________________________________________________________________________________________
dropout_71 (Dropout)            (None, 256, 256, 64) 0           conv2d_143[0][0]                 
__________________________________________________________________________________________________
activation_144 (Activation)     (None, 256, 256, 64) 0           dropout_71[0][0]                 
__________________________________________________________________________________________________
conv2d_144 (Conv2D)             (None, 256, 256, 64) 36928       activation_144[0][0]             
__________________________________________________________________________________________________
add_71 (Add)                    (None, 256, 256, 64) 0           conv2d_144[0][0]                 
                                                                 add_70[0][0]                     
__________________________________________________________________________________________________
batch_normalization_73 (BatchNo (None, 256, 256, 64) 256         add_71[0][0]                     
__________________________________________________________________________________________________
activation_145 (Activation)     (None, 256, 256, 64) 0           batch_normalization_73[0][0]     
__________________________________________________________________________________________________
conv2d_145 (Conv2D)             (None, 256, 256, 64) 36928       activation_145[0][0]             
__________________________________________________________________________________________________
dropout_72 (Dropout)            (None, 256, 256, 64) 0           conv2d_145[0][0]                 
__________________________________________________________________________________________________
activation_146 (Activation)     (None, 256, 256, 64) 0           dropout_72[0][0]                 
__________________________________________________________________________________________________
conv2d_146 (Conv2D)             (None, 256, 256, 64) 36928       activation_146[0][0]             
__________________________________________________________________________________________________
add_72 (Add)                    (None, 256, 256, 64) 0           conv2d_146[0][0]                 
                                                                 add_71[0][0]                     
__________________________________________________________________________________________________
batch_normalization_74 (BatchNo (None, 256, 256, 64) 256         add_72[0][0]                     
__________________________________________________________________________________________________
activation_147 (Activation)     (None, 256, 256, 64) 0           batch_normalization_74[0][0]     
__________________________________________________________________________________________________
conv2d_147 (Conv2D)             (None, 256, 256, 64) 36928       activation_147[0][0]             
__________________________________________________________________________________________________
dropout_73 (Dropout)            (None, 256, 256, 64) 0           conv2d_147[0][0]                 
__________________________________________________________________________________________________
activation_148 (Activation)     (None, 256, 256, 64) 0           dropout_73[0][0]                 
__________________________________________________________________________________________________
conv2d_148 (Conv2D)             (None, 256, 256, 64) 36928       activation_148[0][0]             
__________________________________________________________________________________________________
add_73 (Add)                    (None, 256, 256, 64) 0           conv2d_148[0][0]                 
                                                                 add_72[0][0]                     
__________________________________________________________________________________________________
batch_normalization_75 (BatchNo (None, 256, 256, 64) 256         add_73[0][0]                     
__________________________________________________________________________________________________
activation_149 (Activation)     (None, 256, 256, 64) 0           batch_normalization_75[0][0]     
__________________________________________________________________________________________________
conv2d_149 (Conv2D)             (None, 256, 256, 64) 36928       activation_149[0][0]             
__________________________________________________________________________________________________
dropout_74 (Dropout)            (None, 256, 256, 64) 0           conv2d_149[0][0]                 
__________________________________________________________________________________________________
activation_150 (Activation)     (None, 256, 256, 64) 0           dropout_74[0][0]                 
__________________________________________________________________________________________________
conv2d_150 (Conv2D)             (None, 256, 256, 64) 36928       activation_150[0][0]             
__________________________________________________________________________________________________
add_74 (Add)                    (None, 256, 256, 64) 0           conv2d_150[0][0]                 
                                                                 add_73[0][0]                     
__________________________________________________________________________________________________
batch_normalization_76 (BatchNo (None, 256, 256, 64) 256         add_74[0][0]                     
__________________________________________________________________________________________________
activation_151 (Activation)     (None, 256, 256, 64) 0           batch_normalization_76[0][0]     
__________________________________________________________________________________________________
conv2d_151 (Conv2D)             (None, 256, 256, 64) 36928       activation_151[0][0]             
__________________________________________________________________________________________________
dropout_75 (Dropout)            (None, 256, 256, 64) 0           conv2d_151[0][0]                 
__________________________________________________________________________________________________
activation_152 (Activation)     (None, 256, 256, 64) 0           dropout_75[0][0]                 
__________________________________________________________________________________________________
conv2d_152 (Conv2D)             (None, 256, 256, 64) 36928       activation_152[0][0]             
__________________________________________________________________________________________________
add_75 (Add)                    (None, 256, 256, 64) 0           conv2d_152[0][0]                 
                                                                 add_74[0][0]                     
__________________________________________________________________________________________________
batch_normalization_77 (BatchNo (None, 256, 256, 64) 256         add_75[0][0]                     
__________________________________________________________________________________________________
activation_153 (Activation)     (None, 256, 256, 64) 0           batch_normalization_77[0][0]     
__________________________________________________________________________________________________
conv2d_153 (Conv2D)             (None, 256, 256, 64) 36928       activation_153[0][0]             
__________________________________________________________________________________________________
dropout_76 (Dropout)            (None, 256, 256, 64) 0           conv2d_153[0][0]                 
__________________________________________________________________________________________________
activation_154 (Activation)     (None, 256, 256, 64) 0           dropout_76[0][0]                 
__________________________________________________________________________________________________
conv2d_154 (Conv2D)             (None, 256, 256, 64) 36928       activation_154[0][0]             
__________________________________________________________________________________________________
add_76 (Add)                    (None, 256, 256, 64) 0           conv2d_154[0][0]                 
                                                                 add_75[0][0]                     
__________________________________________________________________________________________________
batch_normalization_78 (BatchNo (None, 256, 256, 64) 256         add_76[0][0]                     
__________________________________________________________________________________________________
activation_155 (Activation)     (None, 256, 256, 64) 0           batch_normalization_78[0][0]     
__________________________________________________________________________________________________
conv2d_155 (Conv2D)             (None, 256, 256, 64) 36928       activation_155[0][0]             
__________________________________________________________________________________________________
dropout_77 (Dropout)            (None, 256, 256, 64) 0           conv2d_155[0][0]                 
__________________________________________________________________________________________________
activation_156 (Activation)     (None, 256, 256, 64) 0           dropout_77[0][0]                 
__________________________________________________________________________________________________
conv2d_156 (Conv2D)             (None, 256, 256, 64) 36928       activation_156[0][0]             
__________________________________________________________________________________________________
add_77 (Add)                    (None, 256, 256, 64) 0           conv2d_156[0][0]                 
                                                                 add_76[0][0]                     
__________________________________________________________________________________________________
batch_normalization_79 (BatchNo (None, 256, 256, 64) 256         add_77[0][0]                     
__________________________________________________________________________________________________
activation_157 (Activation)     (None, 256, 256, 64) 0           batch_normalization_79[0][0]     
__________________________________________________________________________________________________
conv2d_157 (Conv2D)             (None, 256, 256, 64) 36928       activation_157[0][0]             
__________________________________________________________________________________________________
dropout_78 (Dropout)            (None, 256, 256, 64) 0           conv2d_157[0][0]                 
__________________________________________________________________________________________________
activation_158 (Activation)     (None, 256, 256, 64) 0           dropout_78[0][0]                 
__________________________________________________________________________________________________
conv2d_158 (Conv2D)             (None, 256, 256, 64) 36928       activation_158[0][0]             
__________________________________________________________________________________________________
add_78 (Add)                    (None, 256, 256, 64) 0           conv2d_158[0][0]                 
                                                                 add_77[0][0]                     
__________________________________________________________________________________________________
batch_normalization_80 (BatchNo (None, 256, 256, 64) 256         add_78[0][0]                     
__________________________________________________________________________________________________
activation_159 (Activation)     (None, 256, 256, 64) 0           batch_normalization_80[0][0]     
__________________________________________________________________________________________________
conv2d_159 (Conv2D)             (None, 256, 256, 64) 36928       activation_159[0][0]             
__________________________________________________________________________________________________
dropout_79 (Dropout)            (None, 256, 256, 64) 0           conv2d_159[0][0]                 
__________________________________________________________________________________________________
activation_160 (Activation)     (None, 256, 256, 64) 0           dropout_79[0][0]                 
__________________________________________________________________________________________________
conv2d_160 (Conv2D)             (None, 256, 256, 64) 36928       activation_160[0][0]             
__________________________________________________________________________________________________
add_79 (Add)                    (None, 256, 256, 64) 0           conv2d_160[0][0]                 
                                                                 add_78[0][0]                     
__________________________________________________________________________________________________
batch_normalization_81 (BatchNo (None, 256, 256, 64) 256         add_79[0][0]                     
__________________________________________________________________________________________________
activation_161 (Activation)     (None, 256, 256, 64) 0           batch_normalization_81[0][0]     
__________________________________________________________________________________________________
conv2d_161 (Conv2D)             (None, 256, 256, 64) 36928       activation_161[0][0]             
__________________________________________________________________________________________________
dropout_80 (Dropout)            (None, 256, 256, 64) 0           conv2d_161[0][0]                 
__________________________________________________________________________________________________
activation_162 (Activation)     (None, 256, 256, 64) 0           dropout_80[0][0]                 
__________________________________________________________________________________________________
conv2d_162 (Conv2D)             (None, 256, 256, 64) 36928       activation_162[0][0]             
__________________________________________________________________________________________________
add_80 (Add)                    (None, 256, 256, 64) 0           conv2d_162[0][0]                 
                                                                 add_79[0][0]                     
__________________________________________________________________________________________________
batch_normalization_82 (BatchNo (None, 256, 256, 64) 256         add_80[0][0]                     
__________________________________________________________________________________________________
activation_163 (Activation)     (None, 256, 256, 64) 0           batch_normalization_82[0][0]     
__________________________________________________________________________________________________
conv2d_163 (Conv2D)             (None, 256, 256, 64) 36928       activation_163[0][0]             
__________________________________________________________________________________________________
dropout_81 (Dropout)            (None, 256, 256, 64) 0           conv2d_163[0][0]                 
__________________________________________________________________________________________________
activation_164 (Activation)     (None, 256, 256, 64) 0           dropout_81[0][0]                 
__________________________________________________________________________________________________
conv2d_164 (Conv2D)             (None, 256, 256, 64) 36928       activation_164[0][0]             
__________________________________________________________________________________________________
add_81 (Add)                    (None, 256, 256, 64) 0           conv2d_164[0][0]                 
                                                                 add_80[0][0]                     
__________________________________________________________________________________________________
batch_normalization_83 (BatchNo (None, 256, 256, 64) 256         add_81[0][0]                     
__________________________________________________________________________________________________
activation_165 (Activation)     (None, 256, 256, 64) 0           batch_normalization_83[0][0]     
__________________________________________________________________________________________________
conv2d_165 (Conv2D)             (None, 256, 256, 64) 36928       activation_165[0][0]             
__________________________________________________________________________________________________
dropout_82 (Dropout)            (None, 256, 256, 64) 0           conv2d_165[0][0]                 
__________________________________________________________________________________________________
activation_166 (Activation)     (None, 256, 256, 64) 0           dropout_82[0][0]                 
__________________________________________________________________________________________________
conv2d_166 (Conv2D)             (None, 256, 256, 64) 36928       activation_166[0][0]             
__________________________________________________________________________________________________
add_82 (Add)                    (None, 256, 256, 64) 0           conv2d_166[0][0]                 
                                                                 add_81[0][0]                     
__________________________________________________________________________________________________
batch_normalization_84 (BatchNo (None, 256, 256, 64) 256         add_82[0][0]                     
__________________________________________________________________________________________________
activation_167 (Activation)     (None, 256, 256, 64) 0           batch_normalization_84[0][0]     
__________________________________________________________________________________________________
conv2d_167 (Conv2D)             (None, 256, 256, 64) 36928       activation_167[0][0]             
__________________________________________________________________________________________________
dropout_83 (Dropout)            (None, 256, 256, 64) 0           conv2d_167[0][0]                 
__________________________________________________________________________________________________
activation_168 (Activation)     (None, 256, 256, 64) 0           dropout_83[0][0]                 
__________________________________________________________________________________________________
conv2d_168 (Conv2D)             (None, 256, 256, 64) 36928       activation_168[0][0]             
__________________________________________________________________________________________________
add_83 (Add)                    (None, 256, 256, 64) 0           conv2d_168[0][0]                 
                                                                 add_82[0][0]                     
__________________________________________________________________________________________________
batch_normalization_85 (BatchNo (None, 256, 256, 64) 256         add_83[0][0]                     
__________________________________________________________________________________________________
activation_169 (Activation)     (None, 256, 256, 64) 0           batch_normalization_85[0][0]     
__________________________________________________________________________________________________
conv2d_169 (Conv2D)             (None, 256, 256, 64) 36928       activation_169[0][0]             
__________________________________________________________________________________________________
dropout_84 (Dropout)            (None, 256, 256, 64) 0           conv2d_169[0][0]                 
__________________________________________________________________________________________________
activation_170 (Activation)     (None, 256, 256, 64) 0           dropout_84[0][0]                 
__________________________________________________________________________________________________
conv2d_170 (Conv2D)             (None, 256, 256, 64) 36928       activation_170[0][0]             
__________________________________________________________________________________________________
add_84 (Add)                    (None, 256, 256, 64) 0           conv2d_170[0][0]                 
                                                                 add_83[0][0]                     
__________________________________________________________________________________________________
batch_normalization_86 (BatchNo (None, 256, 256, 64) 256         add_84[0][0]                     
__________________________________________________________________________________________________
activation_171 (Activation)     (None, 256, 256, 64) 0           batch_normalization_86[0][0]     
__________________________________________________________________________________________________
conv2d_171 (Conv2D)             (None, 256, 256, 64) 36928       activation_171[0][0]             
__________________________________________________________________________________________________
dropout_85 (Dropout)            (None, 256, 256, 64) 0           conv2d_171[0][0]                 
__________________________________________________________________________________________________
activation_172 (Activation)     (None, 256, 256, 64) 0           dropout_85[0][0]                 
__________________________________________________________________________________________________
conv2d_172 (Conv2D)             (None, 256, 256, 64) 36928       activation_172[0][0]             
__________________________________________________________________________________________________
add_85 (Add)                    (None, 256, 256, 64) 0           conv2d_172[0][0]                 
                                                                 add_84[0][0]                     
__________________________________________________________________________________________________
batch_normalization_87 (BatchNo (None, 256, 256, 64) 256         add_85[0][0]                     
__________________________________________________________________________________________________
activation_173 (Activation)     (None, 256, 256, 64) 0           batch_normalization_87[0][0]     
__________________________________________________________________________________________________
conv2d_173 (Conv2D)             (None, 256, 256, 64) 36928       activation_173[0][0]             
__________________________________________________________________________________________________
dropout_86 (Dropout)            (None, 256, 256, 64) 0           conv2d_173[0][0]                 
__________________________________________________________________________________________________
activation_174 (Activation)     (None, 256, 256, 64) 0           dropout_86[0][0]                 
__________________________________________________________________________________________________
conv2d_174 (Conv2D)             (None, 256, 256, 64) 36928       activation_174[0][0]             
__________________________________________________________________________________________________
add_86 (Add)                    (None, 256, 256, 64) 0           conv2d_174[0][0]                 
                                                                 add_85[0][0]                     
__________________________________________________________________________________________________
batch_normalization_88 (BatchNo (None, 256, 256, 64) 256         add_86[0][0]                     
__________________________________________________________________________________________________
activation_175 (Activation)     (None, 256, 256, 64) 0           batch_normalization_88[0][0]     
__________________________________________________________________________________________________
conv2d_175 (Conv2D)             (None, 256, 256, 64) 36928       activation_175[0][0]             
__________________________________________________________________________________________________
dropout_87 (Dropout)            (None, 256, 256, 64) 0           conv2d_175[0][0]                 
__________________________________________________________________________________________________
activation_176 (Activation)     (None, 256, 256, 64) 0           dropout_87[0][0]                 
__________________________________________________________________________________________________
conv2d_176 (Conv2D)             (None, 256, 256, 64) 36928       activation_176[0][0]             
__________________________________________________________________________________________________
add_87 (Add)                    (None, 256, 256, 64) 0           conv2d_176[0][0]                 
                                                                 add_86[0][0]                     
__________________________________________________________________________________________________
batch_normalization_89 (BatchNo (None, 256, 256, 64) 256         add_87[0][0]                     
__________________________________________________________________________________________________
activation_177 (Activation)     (None, 256, 256, 64) 0           batch_normalization_89[0][0]     
__________________________________________________________________________________________________
conv2d_177 (Conv2D)             (None, 256, 256, 64) 36928       activation_177[0][0]             
__________________________________________________________________________________________________
dropout_88 (Dropout)            (None, 256, 256, 64) 0           conv2d_177[0][0]                 
__________________________________________________________________________________________________
activation_178 (Activation)     (None, 256, 256, 64) 0           dropout_88[0][0]                 
__________________________________________________________________________________________________
conv2d_178 (Conv2D)             (None, 256, 256, 64) 36928       activation_178[0][0]             
__________________________________________________________________________________________________
add_88 (Add)                    (None, 256, 256, 64) 0           conv2d_178[0][0]                 
                                                                 add_87[0][0]                     
__________________________________________________________________________________________________
batch_normalization_90 (BatchNo (None, 256, 256, 64) 256         add_88[0][0]                     
__________________________________________________________________________________________________
activation_179 (Activation)     (None, 256, 256, 64) 0           batch_normalization_90[0][0]     
__________________________________________________________________________________________________
conv2d_179 (Conv2D)             (None, 256, 256, 64) 36928       activation_179[0][0]             
__________________________________________________________________________________________________
dropout_89 (Dropout)            (None, 256, 256, 64) 0           conv2d_179[0][0]                 
__________________________________________________________________________________________________
activation_180 (Activation)     (None, 256, 256, 64) 0           dropout_89[0][0]                 
__________________________________________________________________________________________________
conv2d_180 (Conv2D)             (None, 256, 256, 64) 36928       activation_180[0][0]             
__________________________________________________________________________________________________
add_89 (Add)                    (None, 256, 256, 64) 0           conv2d_180[0][0]                 
                                                                 add_88[0][0]                     
__________________________________________________________________________________________________
batch_normalization_91 (BatchNo (None, 256, 256, 64) 256         add_89[0][0]                     
__________________________________________________________________________________________________
activation_181 (Activation)     (None, 256, 256, 64) 0           batch_normalization_91[0][0]     
__________________________________________________________________________________________________
conv2d_181 (Conv2D)             (None, 256, 256, 64) 36928       activation_181[0][0]             
__________________________________________________________________________________________________
dropout_90 (Dropout)            (None, 256, 256, 64) 0           conv2d_181[0][0]                 
__________________________________________________________________________________________________
activation_182 (Activation)     (None, 256, 256, 64) 0           dropout_90[0][0]                 
__________________________________________________________________________________________________
conv2d_182 (Conv2D)             (None, 256, 256, 64) 36928       activation_182[0][0]             
__________________________________________________________________________________________________
add_90 (Add)                    (None, 256, 256, 64) 0           conv2d_182[0][0]                 
                                                                 add_89[0][0]                     
__________________________________________________________________________________________________
batch_normalization_92 (BatchNo (None, 256, 256, 64) 256         add_90[0][0]                     
__________________________________________________________________________________________________
activation_183 (Activation)     (None, 256, 256, 64) 0           batch_normalization_92[0][0]     
__________________________________________________________________________________________________
conv2d_183 (Conv2D)             (None, 256, 256, 64) 36928       activation_183[0][0]             
__________________________________________________________________________________________________
dropout_91 (Dropout)            (None, 256, 256, 64) 0           conv2d_183[0][0]                 
__________________________________________________________________________________________________
activation_184 (Activation)     (None, 256, 256, 64) 0           dropout_91[0][0]                 
__________________________________________________________________________________________________
conv2d_184 (Conv2D)             (None, 256, 256, 64) 36928       activation_184[0][0]             
__________________________________________________________________________________________________
add_91 (Add)                    (None, 256, 256, 64) 0           conv2d_184[0][0]                 
                                                                 add_90[0][0]                     
__________________________________________________________________________________________________
batch_normalization_93 (BatchNo (None, 256, 256, 64) 256         add_91[0][0]                     
__________________________________________________________________________________________________
activation_185 (Activation)     (None, 256, 256, 64) 0           batch_normalization_93[0][0]     
__________________________________________________________________________________________________
conv2d_185 (Conv2D)             (None, 256, 256, 64) 36928       activation_185[0][0]             
__________________________________________________________________________________________________
dropout_92 (Dropout)            (None, 256, 256, 64) 0           conv2d_185[0][0]                 
__________________________________________________________________________________________________
activation_186 (Activation)     (None, 256, 256, 64) 0           dropout_92[0][0]                 
__________________________________________________________________________________________________
conv2d_186 (Conv2D)             (None, 256, 256, 64) 36928       activation_186[0][0]             
__________________________________________________________________________________________________
add_92 (Add)                    (None, 256, 256, 64) 0           conv2d_186[0][0]                 
                                                                 add_91[0][0]                     
__________________________________________________________________________________________________
batch_normalization_94 (BatchNo (None, 256, 256, 64) 256         add_92[0][0]                     
__________________________________________________________________________________________________
activation_187 (Activation)     (None, 256, 256, 64) 0           batch_normalization_94[0][0]     
__________________________________________________________________________________________________
conv2d_187 (Conv2D)             (None, 256, 256, 64) 36928       activation_187[0][0]             
__________________________________________________________________________________________________
dropout_93 (Dropout)            (None, 256, 256, 64) 0           conv2d_187[0][0]                 
__________________________________________________________________________________________________
activation_188 (Activation)     (None, 256, 256, 64) 0           dropout_93[0][0]                 
__________________________________________________________________________________________________
conv2d_188 (Conv2D)             (None, 256, 256, 64) 36928       activation_188[0][0]             
__________________________________________________________________________________________________
add_93 (Add)                    (None, 256, 256, 64) 0           conv2d_188[0][0]                 
                                                                 add_92[0][0]                     
__________________________________________________________________________________________________
batch_normalization_95 (BatchNo (None, 256, 256, 64) 256         add_93[0][0]                     
__________________________________________________________________________________________________
activation_189 (Activation)     (None, 256, 256, 64) 0           batch_normalization_95[0][0]     
__________________________________________________________________________________________________
conv2d_189 (Conv2D)             (None, 256, 256, 64) 36928       activation_189[0][0]             
__________________________________________________________________________________________________
dropout_94 (Dropout)            (None, 256, 256, 64) 0           conv2d_189[0][0]                 
__________________________________________________________________________________________________
activation_190 (Activation)     (None, 256, 256, 64) 0           dropout_94[0][0]                 
__________________________________________________________________________________________________
conv2d_190 (Conv2D)             (None, 256, 256, 64) 36928       activation_190[0][0]             
__________________________________________________________________________________________________
add_94 (Add)                    (None, 256, 256, 64) 0           conv2d_190[0][0]                 
                                                                 add_93[0][0]                     
__________________________________________________________________________________________________
batch_normalization_96 (BatchNo (None, 256, 256, 64) 256         add_94[0][0]                     
__________________________________________________________________________________________________
activation_191 (Activation)     (None, 256, 256, 64) 0           batch_normalization_96[0][0]     
__________________________________________________________________________________________________
conv2d_191 (Conv2D)             (None, 256, 256, 64) 36928       activation_191[0][0]             
__________________________________________________________________________________________________
dropout_95 (Dropout)            (None, 256, 256, 64) 0           conv2d_191[0][0]                 
__________________________________________________________________________________________________
activation_192 (Activation)     (None, 256, 256, 64) 0           dropout_95[0][0]                 
__________________________________________________________________________________________________
conv2d_192 (Conv2D)             (None, 256, 256, 64) 36928       activation_192[0][0]             
__________________________________________________________________________________________________
add_95 (Add)                    (None, 256, 256, 64) 0           conv2d_192[0][0]                 
                                                                 add_94[0][0]                     
__________________________________________________________________________________________________
batch_normalization_97 (BatchNo (None, 256, 256, 64) 256         add_95[0][0]                     
__________________________________________________________________________________________________
activation_193 (Activation)     (None, 256, 256, 64) 0           batch_normalization_97[0][0]     
__________________________________________________________________________________________________
conv2d_193 (Conv2D)             (None, 256, 256, 64) 36928       activation_193[0][0]             
__________________________________________________________________________________________________
dropout_96 (Dropout)            (None, 256, 256, 64) 0           conv2d_193[0][0]                 
__________________________________________________________________________________________________
activation_194 (Activation)     (None, 256, 256, 64) 0           dropout_96[0][0]                 
__________________________________________________________________________________________________
conv2d_194 (Conv2D)             (None, 256, 256, 64) 36928       activation_194[0][0]             
__________________________________________________________________________________________________
add_96 (Add)                    (None, 256, 256, 64) 0           conv2d_194[0][0]                 
                                                                 add_95[0][0]                     
__________________________________________________________________________________________________
batch_normalization_98 (BatchNo (None, 256, 256, 64) 256         add_96[0][0]                     
__________________________________________________________________________________________________
activation_195 (Activation)     (None, 256, 256, 64) 0           batch_normalization_98[0][0]     
__________________________________________________________________________________________________
conv2d_195 (Conv2D)             (None, 256, 256, 64) 36928       activation_195[0][0]             
__________________________________________________________________________________________________
dropout_97 (Dropout)            (None, 256, 256, 64) 0           conv2d_195[0][0]                 
__________________________________________________________________________________________________
activation_196 (Activation)     (None, 256, 256, 64) 0           dropout_97[0][0]                 
__________________________________________________________________________________________________
conv2d_196 (Conv2D)             (None, 256, 256, 64) 36928       activation_196[0][0]             
__________________________________________________________________________________________________
add_97 (Add)                    (None, 256, 256, 64) 0           conv2d_196[0][0]                 
                                                                 add_96[0][0]                     
__________________________________________________________________________________________________
batch_normalization_99 (BatchNo (None, 256, 256, 64) 256         add_97[0][0]                     
__________________________________________________________________________________________________
activation_197 (Activation)     (None, 256, 256, 64) 0           batch_normalization_99[0][0]     
__________________________________________________________________________________________________
conv2d_197 (Conv2D)             (None, 256, 256, 64) 36928       activation_197[0][0]             
__________________________________________________________________________________________________
dropout_98 (Dropout)            (None, 256, 256, 64) 0           conv2d_197[0][0]                 
__________________________________________________________________________________________________
activation_198 (Activation)     (None, 256, 256, 64) 0           dropout_98[0][0]                 
__________________________________________________________________________________________________
conv2d_198 (Conv2D)             (None, 256, 256, 64) 36928       activation_198[0][0]             
__________________________________________________________________________________________________
add_98 (Add)                    (None, 256, 256, 64) 0           conv2d_198[0][0]                 
                                                                 add_97[0][0]                     
__________________________________________________________________________________________________
batch_normalization_100 (BatchN (None, 256, 256, 64) 256         add_98[0][0]                     
__________________________________________________________________________________________________
activation_199 (Activation)     (None, 256, 256, 64) 0           batch_normalization_100[0][0]    
__________________________________________________________________________________________________
conv2d_199 (Conv2D)             (None, 256, 256, 64) 36928       activation_199[0][0]             
__________________________________________________________________________________________________
dropout_99 (Dropout)            (None, 256, 256, 64) 0           conv2d_199[0][0]                 
__________________________________________________________________________________________________
activation_200 (Activation)     (None, 256, 256, 64) 0           dropout_99[0][0]                 
__________________________________________________________________________________________________
conv2d_200 (Conv2D)             (None, 256, 256, 64) 36928       activation_200[0][0]             
__________________________________________________________________________________________________
add_99 (Add)                    (None, 256, 256, 64) 0           conv2d_200[0][0]                 
                                                                 add_98[0][0]                     
__________________________________________________________________________________________________
batch_normalization_101 (BatchN (None, 256, 256, 64) 256         add_99[0][0]                     
__________________________________________________________________________________________________
activation_201 (Activation)     (None, 256, 256, 64) 0           batch_normalization_101[0][0]    
__________________________________________________________________________________________________
conv2d_201 (Conv2D)             (None, 256, 256, 64) 36928       activation_201[0][0]             
__________________________________________________________________________________________________
dropout_100 (Dropout)           (None, 256, 256, 64) 0           conv2d_201[0][0]                 
__________________________________________________________________________________________________
activation_202 (Activation)     (None, 256, 256, 64) 0           dropout_100[0][0]                
__________________________________________________________________________________________________
conv2d_202 (Conv2D)             (None, 256, 256, 64) 36928       activation_202[0][0]             
__________________________________________________________________________________________________
add_100 (Add)                   (None, 256, 256, 64) 0           conv2d_202[0][0]                 
                                                                 add_99[0][0]                     
__________________________________________________________________________________________________
batch_normalization_102 (BatchN (None, 256, 256, 64) 256         add_100[0][0]                    
__________________________________________________________________________________________________
activation_203 (Activation)     (None, 256, 256, 64) 0           batch_normalization_102[0][0]    
__________________________________________________________________________________________________
conv2d_203 (Conv2D)             (None, 256, 256, 64) 36928       activation_203[0][0]             
__________________________________________________________________________________________________
dropout_101 (Dropout)           (None, 256, 256, 64) 0           conv2d_203[0][0]                 
__________________________________________________________________________________________________
activation_204 (Activation)     (None, 256, 256, 64) 0           dropout_101[0][0]                
__________________________________________________________________________________________________
conv2d_204 (Conv2D)             (None, 256, 256, 64) 36928       activation_204[0][0]             
__________________________________________________________________________________________________
add_101 (Add)                   (None, 256, 256, 64) 0           conv2d_204[0][0]                 
                                                                 add_100[0][0]                    
__________________________________________________________________________________________________
batch_normalization_103 (BatchN (None, 256, 256, 64) 256         add_101[0][0]                    
__________________________________________________________________________________________________
activation_205 (Activation)     (None, 256, 256, 64) 0           batch_normalization_103[0][0]    
__________________________________________________________________________________________________
conv2d_205 (Conv2D)             (None, 256, 256, 64) 36928       activation_205[0][0]             
__________________________________________________________________________________________________
dropout_102 (Dropout)           (None, 256, 256, 64) 0           conv2d_205[0][0]                 
__________________________________________________________________________________________________
activation_206 (Activation)     (None, 256, 256, 64) 0           dropout_102[0][0]                
__________________________________________________________________________________________________
conv2d_206 (Conv2D)             (None, 256, 256, 64) 36928       activation_206[0][0]             
__________________________________________________________________________________________________
add_102 (Add)                   (None, 256, 256, 64) 0           conv2d_206[0][0]                 
                                                                 add_101[0][0]                    
__________________________________________________________________________________________________
batch_normalization_104 (BatchN (None, 256, 256, 64) 256         add_102[0][0]                    
__________________________________________________________________________________________________
activation_207 (Activation)     (None, 256, 256, 64) 0           batch_normalization_104[0][0]    
__________________________________________________________________________________________________
conv2d_207 (Conv2D)             (None, 256, 256, 64) 36928       activation_207[0][0]             
__________________________________________________________________________________________________
dropout_103 (Dropout)           (None, 256, 256, 64) 0           conv2d_207[0][0]                 
__________________________________________________________________________________________________
activation_208 (Activation)     (None, 256, 256, 64) 0           dropout_103[0][0]                
__________________________________________________________________________________________________
conv2d_208 (Conv2D)             (None, 256, 256, 64) 36928       activation_208[0][0]             
__________________________________________________________________________________________________
add_103 (Add)                   (None, 256, 256, 64) 0           conv2d_208[0][0]                 
                                                                 add_102[0][0]                    
__________________________________________________________________________________________________
batch_normalization_105 (BatchN (None, 256, 256, 64) 256         add_103[0][0]                    
__________________________________________________________________________________________________
activation_209 (Activation)     (None, 256, 256, 64) 0           batch_normalization_105[0][0]    
__________________________________________________________________________________________________
conv2d_209 (Conv2D)             (None, 256, 256, 64) 36928       activation_209[0][0]             
__________________________________________________________________________________________________
dropout_104 (Dropout)           (None, 256, 256, 64) 0           conv2d_209[0][0]                 
__________________________________________________________________________________________________
activation_210 (Activation)     (None, 256, 256, 64) 0           dropout_104[0][0]                
__________________________________________________________________________________________________
conv2d_210 (Conv2D)             (None, 256, 256, 64) 36928       activation_210[0][0]             
__________________________________________________________________________________________________
add_104 (Add)                   (None, 256, 256, 64) 0           conv2d_210[0][0]                 
                                                                 add_103[0][0]                    
__________________________________________________________________________________________________
batch_normalization_106 (BatchN (None, 256, 256, 64) 256         add_104[0][0]                    
__________________________________________________________________________________________________
activation_211 (Activation)     (None, 256, 256, 64) 0           batch_normalization_106[0][0]    
__________________________________________________________________________________________________
conv2d_211 (Conv2D)             (None, 256, 256, 64) 36928       activation_211[0][0]             
__________________________________________________________________________________________________
dropout_105 (Dropout)           (None, 256, 256, 64) 0           conv2d_211[0][0]                 
__________________________________________________________________________________________________
activation_212 (Activation)     (None, 256, 256, 64) 0           dropout_105[0][0]                
__________________________________________________________________________________________________
conv2d_212 (Conv2D)             (None, 256, 256, 64) 36928       activation_212[0][0]             
__________________________________________________________________________________________________
add_105 (Add)                   (None, 256, 256, 64) 0           conv2d_212[0][0]                 
                                                                 add_104[0][0]                    
__________________________________________________________________________________________________
batch_normalization_107 (BatchN (None, 256, 256, 64) 256         add_105[0][0]                    
__________________________________________________________________________________________________
activation_213 (Activation)     (None, 256, 256, 64) 0           batch_normalization_107[0][0]    
__________________________________________________________________________________________________
conv2d_213 (Conv2D)             (None, 256, 256, 64) 36928       activation_213[0][0]             
__________________________________________________________________________________________________
dropout_106 (Dropout)           (None, 256, 256, 64) 0           conv2d_213[0][0]                 
__________________________________________________________________________________________________
activation_214 (Activation)     (None, 256, 256, 64) 0           dropout_106[0][0]                
__________________________________________________________________________________________________
conv2d_214 (Conv2D)             (None, 256, 256, 64) 36928       activation_214[0][0]             
__________________________________________________________________________________________________
add_106 (Add)                   (None, 256, 256, 64) 0           conv2d_214[0][0]                 
                                                                 add_105[0][0]                    
__________________________________________________________________________________________________
batch_normalization_108 (BatchN (None, 256, 256, 64) 256         add_106[0][0]                    
__________________________________________________________________________________________________
activation_215 (Activation)     (None, 256, 256, 64) 0           batch_normalization_108[0][0]    
__________________________________________________________________________________________________
conv2d_215 (Conv2D)             (None, 256, 256, 64) 36928       activation_215[0][0]             
__________________________________________________________________________________________________
dropout_107 (Dropout)           (None, 256, 256, 64) 0           conv2d_215[0][0]                 
__________________________________________________________________________________________________
activation_216 (Activation)     (None, 256, 256, 64) 0           dropout_107[0][0]                
__________________________________________________________________________________________________
conv2d_216 (Conv2D)             (None, 256, 256, 64) 36928       activation_216[0][0]             
__________________________________________________________________________________________________
add_107 (Add)                   (None, 256, 256, 64) 0           conv2d_216[0][0]                 
                                                                 add_106[0][0]                    
__________________________________________________________________________________________________
batch_normalization_109 (BatchN (None, 256, 256, 64) 256         add_107[0][0]                    
__________________________________________________________________________________________________
activation_217 (Activation)     (None, 256, 256, 64) 0           batch_normalization_109[0][0]    
__________________________________________________________________________________________________
conv2d_217 (Conv2D)             (None, 256, 256, 64) 36928       activation_217[0][0]             
__________________________________________________________________________________________________
dropout_108 (Dropout)           (None, 256, 256, 64) 0           conv2d_217[0][0]                 
__________________________________________________________________________________________________
activation_218 (Activation)     (None, 256, 256, 64) 0           dropout_108[0][0]                
__________________________________________________________________________________________________
conv2d_218 (Conv2D)             (None, 256, 256, 64) 36928       activation_218[0][0]             
__________________________________________________________________________________________________
add_108 (Add)                   (None, 256, 256, 64) 0           conv2d_218[0][0]                 
                                                                 add_107[0][0]                    
__________________________________________________________________________________________________
batch_normalization_110 (BatchN (None, 256, 256, 64) 256         add_108[0][0]                    
__________________________________________________________________________________________________
activation_219 (Activation)     (None, 256, 256, 64) 0           batch_normalization_110[0][0]    
__________________________________________________________________________________________________
conv2d_219 (Conv2D)             (None, 256, 256, 64) 36928       activation_219[0][0]             
__________________________________________________________________________________________________
dropout_109 (Dropout)           (None, 256, 256, 64) 0           conv2d_219[0][0]                 
__________________________________________________________________________________________________
activation_220 (Activation)     (None, 256, 256, 64) 0           dropout_109[0][0]                
__________________________________________________________________________________________________
conv2d_220 (Conv2D)             (None, 256, 256, 64) 36928       activation_220[0][0]             
__________________________________________________________________________________________________
add_109 (Add)                   (None, 256, 256, 64) 0           conv2d_220[0][0]                 
                                                                 add_108[0][0]                    
__________________________________________________________________________________________________
batch_normalization_111 (BatchN (None, 256, 256, 64) 256         add_109[0][0]                    
__________________________________________________________________________________________________
activation_221 (Activation)     (None, 256, 256, 64) 0           batch_normalization_111[0][0]    
__________________________________________________________________________________________________
conv2d_221 (Conv2D)             (None, 256, 256, 64) 36928       activation_221[0][0]             
__________________________________________________________________________________________________
dropout_110 (Dropout)           (None, 256, 256, 64) 0           conv2d_221[0][0]                 
__________________________________________________________________________________________________
activation_222 (Activation)     (None, 256, 256, 64) 0           dropout_110[0][0]                
__________________________________________________________________________________________________
conv2d_222 (Conv2D)             (None, 256, 256, 64) 36928       activation_222[0][0]             
__________________________________________________________________________________________________
add_110 (Add)                   (None, 256, 256, 64) 0           conv2d_222[0][0]                 
                                                                 add_109[0][0]                    
__________________________________________________________________________________________________
batch_normalization_112 (BatchN (None, 256, 256, 64) 256         add_110[0][0]                    
__________________________________________________________________________________________________
activation_223 (Activation)     (None, 256, 256, 64) 0           batch_normalization_112[0][0]    
__________________________________________________________________________________________________
conv2d_223 (Conv2D)             (None, 256, 256, 64) 36928       activation_223[0][0]             
__________________________________________________________________________________________________
dropout_111 (Dropout)           (None, 256, 256, 64) 0           conv2d_223[0][0]                 
__________________________________________________________________________________________________
activation_224 (Activation)     (None, 256, 256, 64) 0           dropout_111[0][0]                
__________________________________________________________________________________________________
conv2d_224 (Conv2D)             (None, 256, 256, 64) 36928       activation_224[0][0]             
__________________________________________________________________________________________________
add_111 (Add)                   (None, 256, 256, 64) 0           conv2d_224[0][0]                 
                                                                 add_110[0][0]                    
__________________________________________________________________________________________________
batch_normalization_113 (BatchN (None, 256, 256, 64) 256         add_111[0][0]                    
__________________________________________________________________________________________________
activation_225 (Activation)     (None, 256, 256, 64) 0           batch_normalization_113[0][0]    
__________________________________________________________________________________________________
conv2d_225 (Conv2D)             (None, 256, 256, 64) 36928       activation_225[0][0]             
__________________________________________________________________________________________________
dropout_112 (Dropout)           (None, 256, 256, 64) 0           conv2d_225[0][0]                 
__________________________________________________________________________________________________
activation_226 (Activation)     (None, 256, 256, 64) 0           dropout_112[0][0]                
__________________________________________________________________________________________________
conv2d_226 (Conv2D)             (None, 256, 256, 64) 36928       activation_226[0][0]             
__________________________________________________________________________________________________
add_112 (Add)                   (None, 256, 256, 64) 0           conv2d_226[0][0]                 
                                                                 add_111[0][0]                    
__________________________________________________________________________________________________
batch_normalization_114 (BatchN (None, 256, 256, 64) 256         add_112[0][0]                    
__________________________________________________________________________________________________
activation_227 (Activation)     (None, 256, 256, 64) 0           batch_normalization_114[0][0]    
__________________________________________________________________________________________________
conv2d_227 (Conv2D)             (None, 256, 256, 64) 36928       activation_227[0][0]             
__________________________________________________________________________________________________
dropout_113 (Dropout)           (None, 256, 256, 64) 0           conv2d_227[0][0]                 
__________________________________________________________________________________________________
activation_228 (Activation)     (None, 256, 256, 64) 0           dropout_113[0][0]                
__________________________________________________________________________________________________
conv2d_228 (Conv2D)             (None, 256, 256, 64) 36928       activation_228[0][0]             
__________________________________________________________________________________________________
add_113 (Add)                   (None, 256, 256, 64) 0           conv2d_228[0][0]                 
                                                                 add_112[0][0]                    
__________________________________________________________________________________________________
batch_normalization_115 (BatchN (None, 256, 256, 64) 256         add_113[0][0]                    
__________________________________________________________________________________________________
activation_229 (Activation)     (None, 256, 256, 64) 0           batch_normalization_115[0][0]    
__________________________________________________________________________________________________
conv2d_229 (Conv2D)             (None, 256, 256, 64) 36928       activation_229[0][0]             
__________________________________________________________________________________________________
dropout_114 (Dropout)           (None, 256, 256, 64) 0           conv2d_229[0][0]                 
__________________________________________________________________________________________________
activation_230 (Activation)     (None, 256, 256, 64) 0           dropout_114[0][0]                
__________________________________________________________________________________________________
conv2d_230 (Conv2D)             (None, 256, 256, 64) 36928       activation_230[0][0]             
__________________________________________________________________________________________________
add_114 (Add)                   (None, 256, 256, 64) 0           conv2d_230[0][0]                 
                                                                 add_113[0][0]                    
__________________________________________________________________________________________________
batch_normalization_116 (BatchN (None, 256, 256, 64) 256         add_114[0][0]                    
__________________________________________________________________________________________________
activation_231 (Activation)     (None, 256, 256, 64) 0           batch_normalization_116[0][0]    
__________________________________________________________________________________________________
conv2d_231 (Conv2D)             (None, 256, 256, 64) 36928       activation_231[0][0]             
__________________________________________________________________________________________________
dropout_115 (Dropout)           (None, 256, 256, 64) 0           conv2d_231[0][0]                 
__________________________________________________________________________________________________
activation_232 (Activation)     (None, 256, 256, 64) 0           dropout_115[0][0]                
__________________________________________________________________________________________________
conv2d_232 (Conv2D)             (None, 256, 256, 64) 36928       activation_232[0][0]             
__________________________________________________________________________________________________
add_115 (Add)                   (None, 256, 256, 64) 0           conv2d_232[0][0]                 
                                                                 add_114[0][0]                    
__________________________________________________________________________________________________
batch_normalization_117 (BatchN (None, 256, 256, 64) 256         add_115[0][0]                    
__________________________________________________________________________________________________
activation_233 (Activation)     (None, 256, 256, 64) 0           batch_normalization_117[0][0]    
__________________________________________________________________________________________________
conv2d_233 (Conv2D)             (None, 256, 256, 64) 36928       activation_233[0][0]             
__________________________________________________________________________________________________
dropout_116 (Dropout)           (None, 256, 256, 64) 0           conv2d_233[0][0]                 
__________________________________________________________________________________________________
activation_234 (Activation)     (None, 256, 256, 64) 0           dropout_116[0][0]                
__________________________________________________________________________________________________
conv2d_234 (Conv2D)             (None, 256, 256, 64) 36928       activation_234[0][0]             
__________________________________________________________________________________________________
add_116 (Add)                   (None, 256, 256, 64) 0           conv2d_234[0][0]                 
                                                                 add_115[0][0]                    
__________________________________________________________________________________________________
batch_normalization_118 (BatchN (None, 256, 256, 64) 256         add_116[0][0]                    
__________________________________________________________________________________________________
activation_235 (Activation)     (None, 256, 256, 64) 0           batch_normalization_118[0][0]    
__________________________________________________________________________________________________
conv2d_235 (Conv2D)             (None, 256, 256, 64) 36928       activation_235[0][0]             
__________________________________________________________________________________________________
dropout_117 (Dropout)           (None, 256, 256, 64) 0           conv2d_235[0][0]                 
__________________________________________________________________________________________________
activation_236 (Activation)     (None, 256, 256, 64) 0           dropout_117[0][0]                
__________________________________________________________________________________________________
conv2d_236 (Conv2D)             (None, 256, 256, 64) 36928       activation_236[0][0]             
__________________________________________________________________________________________________
add_117 (Add)                   (None, 256, 256, 64) 0           conv2d_236[0][0]                 
                                                                 add_116[0][0]                    
__________________________________________________________________________________________________
batch_normalization_119 (BatchN (None, 256, 256, 64) 256         add_117[0][0]                    
__________________________________________________________________________________________________
activation_237 (Activation)     (None, 256, 256, 64) 0           batch_normalization_119[0][0]    
__________________________________________________________________________________________________
conv2d_237 (Conv2D)             (None, 256, 256, 64) 36928       activation_237[0][0]             
__________________________________________________________________________________________________
dropout_118 (Dropout)           (None, 256, 256, 64) 0           conv2d_237[0][0]                 
__________________________________________________________________________________________________
activation_238 (Activation)     (None, 256, 256, 64) 0           dropout_118[0][0]                
__________________________________________________________________________________________________
conv2d_238 (Conv2D)             (None, 256, 256, 64) 36928       activation_238[0][0]             
__________________________________________________________________________________________________
add_118 (Add)                   (None, 256, 256, 64) 0           conv2d_238[0][0]                 
                                                                 add_117[0][0]                    
__________________________________________________________________________________________________
batch_normalization_120 (BatchN (None, 256, 256, 64) 256         add_118[0][0]                    
__________________________________________________________________________________________________
activation_239 (Activation)     (None, 256, 256, 64) 0           batch_normalization_120[0][0]    
__________________________________________________________________________________________________
conv2d_239 (Conv2D)             (None, 256, 256, 64) 36928       activation_239[0][0]             
__________________________________________________________________________________________________
dropout_119 (Dropout)           (None, 256, 256, 64) 0           conv2d_239[0][0]                 
__________________________________________________________________________________________________
activation_240 (Activation)     (None, 256, 256, 64) 0           dropout_119[0][0]                
__________________________________________________________________________________________________
conv2d_240 (Conv2D)             (None, 256, 256, 64) 36928       activation_240[0][0]             
__________________________________________________________________________________________________
add_119 (Add)                   (None, 256, 256, 64) 0           conv2d_240[0][0]                 
                                                                 add_118[0][0]                    
__________________________________________________________________________________________________
batch_normalization_121 (BatchN (None, 256, 256, 64) 256         add_119[0][0]                    
__________________________________________________________________________________________________
activation_241 (Activation)     (None, 256, 256, 64) 0           batch_normalization_121[0][0]    
__________________________________________________________________________________________________
conv2d_241 (Conv2D)             (None, 256, 256, 64) 36928       activation_241[0][0]             
__________________________________________________________________________________________________
dropout_120 (Dropout)           (None, 256, 256, 64) 0           conv2d_241[0][0]                 
__________________________________________________________________________________________________
activation_242 (Activation)     (None, 256, 256, 64) 0           dropout_120[0][0]                
__________________________________________________________________________________________________
conv2d_242 (Conv2D)             (None, 256, 256, 64) 36928       activation_242[0][0]             
__________________________________________________________________________________________________
add_120 (Add)                   (None, 256, 256, 64) 0           conv2d_242[0][0]                 
                                                                 add_119[0][0]                    
__________________________________________________________________________________________________
batch_normalization_122 (BatchN (None, 256, 256, 64) 256         add_120[0][0]                    
__________________________________________________________________________________________________
activation_243 (Activation)     (None, 256, 256, 64) 0           batch_normalization_122[0][0]    
__________________________________________________________________________________________________
conv2d_243 (Conv2D)             (None, 256, 256, 64) 36928       activation_243[0][0]             
__________________________________________________________________________________________________
dropout_121 (Dropout)           (None, 256, 256, 64) 0           conv2d_243[0][0]                 
__________________________________________________________________________________________________
activation_244 (Activation)     (None, 256, 256, 64) 0           dropout_121[0][0]                
__________________________________________________________________________________________________
conv2d_244 (Conv2D)             (None, 256, 256, 64) 36928       activation_244[0][0]             
__________________________________________________________________________________________________
add_121 (Add)                   (None, 256, 256, 64) 0           conv2d_244[0][0]                 
                                                                 add_120[0][0]                    
__________________________________________________________________________________________________
batch_normalization_123 (BatchN (None, 256, 256, 64) 256         add_121[0][0]                    
__________________________________________________________________________________________________
activation_245 (Activation)     (None, 256, 256, 64) 0           batch_normalization_123[0][0]    
__________________________________________________________________________________________________
conv2d_245 (Conv2D)             (None, 256, 256, 64) 36928       activation_245[0][0]             
__________________________________________________________________________________________________
dropout_122 (Dropout)           (None, 256, 256, 64) 0           conv2d_245[0][0]                 
__________________________________________________________________________________________________
activation_246 (Activation)     (None, 256, 256, 64) 0           dropout_122[0][0]                
__________________________________________________________________________________________________
conv2d_246 (Conv2D)             (None, 256, 256, 64) 36928       activation_246[0][0]             
__________________________________________________________________________________________________
add_122 (Add)                   (None, 256, 256, 64) 0           conv2d_246[0][0]                 
                                                                 add_121[0][0]                    
__________________________________________________________________________________________________
batch_normalization_124 (BatchN (None, 256, 256, 64) 256         add_122[0][0]                    
__________________________________________________________________________________________________
activation_247 (Activation)     (None, 256, 256, 64) 0           batch_normalization_124[0][0]    
__________________________________________________________________________________________________
conv2d_247 (Conv2D)             (None, 256, 256, 64) 36928       activation_247[0][0]             
__________________________________________________________________________________________________
dropout_123 (Dropout)           (None, 256, 256, 64) 0           conv2d_247[0][0]                 
__________________________________________________________________________________________________
activation_248 (Activation)     (None, 256, 256, 64) 0           dropout_123[0][0]                
__________________________________________________________________________________________________
conv2d_248 (Conv2D)             (None, 256, 256, 64) 36928       activation_248[0][0]             
__________________________________________________________________________________________________WARNING:tensorflow:From /home/badri/.local/lib/python3.6/site-packages/tensorflow_core/python/ops/math_grad.py:1423: where (from tensorflow.python.ops.array_ops) is deprecated and will be removed in a future version.
Instructions for updating:
Use tf.where in 2.0, which has the same broadcast rule as np.where
WARNING:tensorflow:From /home/badri/.local/lib/python3.6/site-packages/tensorflow_core/python/keras/optimizer_v2/optimizer_v2.py:468: BaseResourceVariable.constraint (from tensorflow.python.ops.resource_variable_ops) is deprecated and will be removed in a future version.
Instructions for updating:
Apply a constraint manually following the optimizer update step.
2020-04-22 09:16:49.792649: I tensorflow/stream_executor/platform/default/dso_loader.cc:44] Successfully opened dynamic library libcudnn.so.7

add_123 (Add)                   (None, 256, 256, 64) 0           conv2d_248[0][0]                 
                                                                 add_122[0][0]                    
__________________________________________________________________________________________________
batch_normalization_125 (BatchN (None, 256, 256, 64) 256         add_123[0][0]                    
__________________________________________________________________________________________________
activation_249 (Activation)     (None, 256, 256, 64) 0           batch_normalization_125[0][0]    
__________________________________________________________________________________________________
conv2d_249 (Conv2D)             (None, 256, 256, 64) 36928       activation_249[0][0]             
__________________________________________________________________________________________________
dropout_124 (Dropout)           (None, 256, 256, 64) 0           conv2d_249[0][0]                 
__________________________________________________________________________________________________
activation_250 (Activation)     (None, 256, 256, 64) 0           dropout_124[0][0]                
__________________________________________________________________________________________________
conv2d_250 (Conv2D)             (None, 256, 256, 64) 36928       activation_250[0][0]             
__________________________________________________________________________________________________
add_124 (Add)                   (None, 256, 256, 64) 0           conv2d_250[0][0]                 
                                                                 add_123[0][0]                    
__________________________________________________________________________________________________
batch_normalization_126 (BatchN (None, 256, 256, 64) 256         add_124[0][0]                    
__________________________________________________________________________________________________
activation_251 (Activation)     (None, 256, 256, 64) 0           batch_normalization_126[0][0]    
__________________________________________________________________________________________________
conv2d_251 (Conv2D)             (None, 256, 256, 64) 36928       activation_251[0][0]             
__________________________________________________________________________________________________
dropout_125 (Dropout)           (None, 256, 256, 64) 0           conv2d_251[0][0]                 
__________________________________________________________________________________________________
activation_252 (Activation)     (None, 256, 256, 64) 0           dropout_125[0][0]                
__________________________________________________________________________________________________
conv2d_252 (Conv2D)             (None, 256, 256, 64) 36928       activation_252[0][0]             
__________________________________________________________________________________________________
add_125 (Add)                   (None, 256, 256, 64) 0           conv2d_252[0][0]                 
                                                                 add_124[0][0]                    
__________________________________________________________________________________________________
batch_normalization_127 (BatchN (None, 256, 256, 64) 256         add_125[0][0]                    
__________________________________________________________________________________________________
activation_253 (Activation)     (None, 256, 256, 64) 0           batch_normalization_127[0][0]    
__________________________________________________________________________________________________
conv2d_253 (Conv2D)             (None, 256, 256, 64) 36928       activation_253[0][0]             
__________________________________________________________________________________________________
dropout_126 (Dropout)           (None, 256, 256, 64) 0           conv2d_253[0][0]                 
__________________________________________________________________________________________________
activation_254 (Activation)     (None, 256, 256, 64) 0           dropout_126[0][0]                
__________________________________________________________________________________________________
conv2d_254 (Conv2D)             (None, 256, 256, 64) 36928       activation_254[0][0]             
__________________________________________________________________________________________________
add_126 (Add)                   (None, 256, 256, 64) 0           conv2d_254[0][0]                 
                                                                 add_125[0][0]                    
__________________________________________________________________________________________________
batch_normalization_128 (BatchN (None, 256, 256, 64) 256         add_126[0][0]                    
__________________________________________________________________________________________________
activation_255 (Activation)     (None, 256, 256, 64) 0           batch_normalization_128[0][0]    
__________________________________________________________________________________________________
conv2d_255 (Conv2D)             (None, 256, 256, 64) 36928       activation_255[0][0]             
__________________________________________________________________________________________________
dropout_127 (Dropout)           (None, 256, 256, 64) 0           conv2d_255[0][0]                 
__________________________________________________________________________________________________
activation_256 (Activation)     (None, 256, 256, 64) 0           dropout_127[0][0]                
__________________________________________________________________________________________________
conv2d_256 (Conv2D)             (None, 256, 256, 64) 36928       activation_256[0][0]             
__________________________________________________________________________________________________
add_127 (Add)                   (None, 256, 256, 64) 0           conv2d_256[0][0]                 
                                                                 add_126[0][0]                    
__________________________________________________________________________________________________
batch_normalization_129 (BatchN (None, 256, 256, 64) 256         add_127[0][0]                    
__________________________________________________________________________________________________
activation_257 (Activation)     (None, 256, 256, 64) 0           batch_normalization_129[0][0]    
__________________________________________________________________________________________________
conv2d_257 (Conv2D)             (None, 256, 256, 1)  577         activation_257[0][0]             
__________________________________________________________________________________________________
activation_258 (Activation)     (None, 256, 256, 1)  0           conv2d_257[0][0]                 
==================================================================================================
Total params: 9,491,109
Trainable params: 9,474,483
Non-trainable params: 16,626
__________________________________________________________________________________________________
None

Loading existing weights..

Train..
Epoch 1/8
   1/1678 [............
…
